dev/Monolith_QAE/qae_runs/mackey_glass_tau30_n200/4q_2l_2t/L3/weights_inst04_L3.npy (npy, 704 bytes, 1 tensors)

array f8 [6, 4, 3]
1.9214913739128563 -1.7463854472331963 -0.2582784296016033 1.6473387052011446 -1.3937181483421566 0.11563483408394698 1.4337951299518015 -1.7055911371487542
-1.2651750658664147 0.0065517235325614305 -1.8434429828813546 -4.086807884988951 0.3879581630924219 1.119464102215195 2.4507965595661227 -0.9165256317886118
1.0018680880280422 -0.5575649973242952 0.9639455695255712 -0.7747862963937143 1.0657703143752095 -1.0457652053243076 0.3601962189601446 0.25994971655370935
1.3751412366895874 0.7549003384698022 -0.4378407264306908 0.36965184706609405 0.46199565446470126 0.44673561758072705 -1.1976098782795406 0.14359046620261035
0.29966617304739507 -0.14619620392221286 1.1428659179902125 0.7824927002157775 0.2978340314436413 1.594823804700465 -3.067574242470346 0.5966670433289526
2.0170284623360653 0.7080802814682783 0.0200592442604969 0.9809408138933304 -0.2690036529698256 0.08013960714001309 -0.38350224481920686 1.2215065015510818
-1.1010134742889544 0.18244664874892602 0.7605265130289136 0.5152988860604716 -2.2691970406036313 -0.36366145451299475 1.0621556090929858 -0.7487437256710473
0.1335477120863661 1.6310890876358868 0.5341676807035168 -0.46298025916075214 0.1010188281267376 -1.0113686931551669 0.7344326124048451 -0.8756213759243011
0.2498025274809012 1.4841818328732628 3.1781860854307467 -1.1368228538625245 0.08713727000354073 0.7648687579341731 0.8466566320190496 0.6055912134098637
00000000: 7a07 28bd 6dbe fe3f 083b e1dd 31f1 fbbf
00000010: 06ac 1940 a287 d0bf e661 84d4 7f5b fa3f
00000020: 328a af66 ab4c f6bf 8c3f ab96 3e9a bd3f
00000030: b5e9 8429 d3f0 f63f ee6b a6ee 194a fbbf
00000040: 3cc6 b935 283e f4bf 2b66 e0e4 fad5 7a3f
00000050: f841 b811 be7e fdbf f93f 8c2a e458 10c0
00000060: 16af ac79 4ed4 d83f d7f6 c030 53e9 f13f
00000070: f2e2 033a 3b9b 0340 594a cf8f 2d54 edbf
00000080: aac8 0fd5 a607 f03f 9fde 9c8c 92d7 e1bf
00000090: c690 0761 a4d8 ee3f 85cc 8ca1 0ccb e8bf
000000a0: 6aa0 542c 650d f13f 1e9a c24b 74bb f0bf
000000b0: 43e8 2471 740d d73f 3ef8 cc22 04a3 d03f
000000c0: 8567 ef18 9400 f63f bdf2 2ec1 2428 e83f
000000d0: d91b 381c 9505 dcbf f382 8338 60a8 d73f
000000e0: 047b b438 5691 dd3f ebec ddfc 5097 dc3f
000000f0: 143c c9f9 6829 f3bf fec5 2d22 2c61 c23f
00000100: bc2f 3d07 bb2d d33f 9797 52a5 8eb6 c2bf
00000110: 19b2 d7c5 2d49 f23f ca22 9921 2e0a e93f
00000120: eeeb 2b78 b60f d33f f321 41f7 6584 f93f
00000130: 67b2 4b5d 648a 08c0 1d5d b67b e517 e33f
00000140: 32ad 86d1 df22 0040 cc28 7bfa 97a8 e63f
00000150: e642 5318 698a 943f a478 5ffd dd63 ef3f
00000160: c3a2 0019 5b37 d1bf 4ed8 c77f 0784 b43f
00000170: a33a dcff 4c8b d8bf 5a36 c066 4a8b f33f
00000180: 1e6c 084e c09d f1bf 981a d26a 695a c73f
00000190: 3c67 a6b2 3b56 e83f 4770 e916 547d e03f
000001a0: a594 2cc7 5027 02c0 1fbe 7cb1 3a46 d7bf
000001b0: cd13 45e1 96fe f03f 7bf4 da66 b5f5 e7bf
000001c0: a5eb ee67 1718 c13f 4623 04df f018 fa3f
000001d0: f174 e6d1 e617 e13f 8c7f f2f3 77a1 ddbf
000001e0: 3aa7 15b3 5edc b93f 93cb 54f0 902e f0bf
000001f0: 01a1 6cd2 7880 e73f a7bf a81e 1705 ecbf
00000200: d68a fe7a 87f9 cf3f c620 1873 35bf f73f
00000210: f337 8cd3 ec6c 0940 79f5 2a29 6d30 f2bf
00000220: c58c edcc a04e b63f b8e6 a10b ce79 e83f
00000230: 8ed3 2ea6 cf17 eb3f e9e3 0ad3 0061 e33f
