dev/Monolith_QAE/qae_runs/mackey_glass_tau30_n200/4q_2l_2t/L3/weights_inst03_L3.npy (npy, 704 bytes, 1 tensors)

array f8 [6, 4, 3]
00000000: bd24 b53b 9389 02c0 bf2e ce28 af1c f93f
00000010: 8dda 461e 6aaa e8bf 82ec b472 ab19 fc3f
00000020: 199c ef22 cb61 ebbf 846b 4fa8 51ce 01c0
00000030: cda1 d783 6826 f13f b6c3 e211 1c75 503f
00000040: 0c84 c1bd cef2 ddbf 023d da3c 121d c0bf
00000050: 8828 efc9 6e6b f5bf 26c4 1c69 ad51 f03f
00000060: e83d 573b 6610 f8bf 91fb b395 d996 01c0
00000070: 0fdf 08a9 5d2d f7bf fa11 6648 cddb e13f
00000080: 326c e5a6 99b0 aabf 9ae0 e7f0 f56e c23f
00000090: 1313 9c00 8996 f03f fa9d 31fa eb7b 0040
000000a0: 04b5 2262 6806 c63f abc9 ec6d c488 e93f
000000b0: 80da 2829 ac2f d23f cb3c 5e95 6845 e23f
000000c0: 8a2d c793 ac7c c33f 81f1 7029 687f b5bf
000000d0: f213 1378 b0e5 b0bf 1e2a 9bfc 1eac e83f
000000e0: 019a f5bb eb4a f9bf 4902 10e2 6639 7f3f
000000f0: 2106 aec6 f5c0 1440 4c0f 27fb 128e be3f
00000100: 2f38 731f 8e80 d93f 6e9f 1cee 40fe f13f
00000110: d6ec a9b6 b7d7 f4bf e6b6 aa61 b802 e83f
00000120: b80d 42bb 8598 e03f d31e 9424 87c8 fb3f
00000130: e10f 4dd2 c188 df3f 38d8 0ba2 6790 b83f
00000140: 6103 de78 2ce3 f13f 2537 b395 481b 0e40
00000150: bb9f 79df 80d8 e03f 2d13 8052 0b39 01c0
00000160: c192 c800 3def f6bf 3f51 d818 d39d d03f
00000170: 60bb 845e 38f4 e1bf 357f bcc1 4ccd f03f
00000180: 97b2 c260 4106 d0bf cf77 dae0 8426 e03f
00000190: c6ac 1564 e1f0 c63f 56f0 2a20 780a f8bf
000001a0: 77ad 0453 0aa1 c9bf 0d3f b154 d273 f33f
000001b0: f5e4 6c4c f8a8 e33f ec79 0664 f67a dfbf
000001c0: 0e33 17ac ae4b f13f 9691 e8ce a28e f3bf
000001d0: 4f76 8da6 cf3d f33f d3f3 b951 6b00 f53f
000001e0: 969a 60aa 6fd8 f13f a4c0 7e11 a913 f6bf
000001f0: ea36 1dd8 66db babf 06cc fe7b 4ef3 ee3f
00000200: 54c4 589a e25e a93f 9cc7 5e8e 0fe9 f1bf
00000210: 3f61 8070 1bc9 0640 761d 14c0 60b3 f0bf
00000220: c28f dcaa 7e94 de3f ad6e 59a3 9f47 f4bf
00000230: cc97 5af9 815a ec3f 3a81 c5b4 94ff c7bf
-2.3171753563552486 1.5695029825173348 -0.7708025542586526 1.7562670212489881 -0.8556876833289407 -2.225741686748224 1.0718770170297944 0.001004483615855129
-0.46794479876376793 -0.12588718386948733 -1.3387287033133664 1.019940767855823 -1.5040037458419366 -2.1986571975280147 -1.448575649539581 0.558081284908041
-0.05212860262209808 0.14401125205018134 1.0367517494025307 2.0605086847679077 0.17207054893280127 0.7979452273341868 0.28415969867220525 0.5709727208467482
0.15224225249981443 -0.08397532474277193 -0.06600478106982147 0.7710108693802942 -1.5807912199176146 0.007623102080288443 5.188437561389521 0.11935537940649715
0.3984713847283982 1.1245736409418572 -1.302665437250473 0.7503320605807999 0.518618455637287 1.7364570072986012 0.4927219918938573 0.09595344263274874
1.117962333810475 3.7633220382039263 0.526428638911049 -2.15285362676004 -1.4334077864270258 0.2596328489901402 -0.5610620351852553 1.0501220290970654
-0.25038179826041457 0.5047020332019602 0.17922608744570406 -1.5025559670021003 -0.20022706082941585 1.2157767589851034 0.6143762104685765 -0.49188003318877693
1.0809771272935822 -1.2223232347833792 1.2025906091652308 1.3126023476063338 1.1153408675542429 -1.3797999080088994 -0.10491030479644406 0.9672005101950851
0.049552041379123196 -1.119399601110195 2.8481968678644587 -1.0437934401578253 0.47781340299320274 -1.2674862271150389 0.8860483045762009 -0.18748720957501935
