dev/Sidekick_QAE/qae_runs/mackey_glass_tau17_n200/4q_2l_2t_sidekick/L5/weights_s1_inst01_L5.npy (npy, 608 bytes, 1 tensors)

array f8 [5, 4, 3]
00000000: 2770 13cd c016 fbbf da59 22d0 ba44 f93f
00000010: d940 caf7 d0f3 fc3f 4f66 a22f 233d b8bf
00000020: 5e8e d6fa 844e babf 83de 2f86 c5d9 a83f
00000030: ff4c 2a59 ce4a a0bf e380 95eb 938e f73f
00000040: 11d1 2c16 3959 f93f e179 f9f3 83a1 f5bf
00000050: f77e ec58 f52d f93f 4b98 b062 d805 b33f
00000060: 0ba5 51e6 de8e 0240 1175 38f8 b8f9 e73f
00000070: 3f5d 8e34 11f1 f9bf 4efd 3ae0 2a72 5fbf
00000080: ef82 deb7 35d7 6a3f 603f af21 ec22 f03f
00000090: e13e 4e6f d8ac e23f a6aa 29ec 276b efbf
000000a0: e46d 4b62 03d9 d1bf b355 0d17 be89 d83f
000000b0: a11e 28eb 0070 9c3f 05e1 b4c6 d1af e43f
000000c0: a3e8 ffb4 9a6d dfbf c821 762e aceb f53f
000000d0: a6e6 73f9 442d f43f 367f 1be3 63bf e03f
000000e0: f31d 1554 b43c eebf 8cc8 893a 908b fabf
000000f0: d24f e85a 03d0 cdbf 3d1c 341d 693b f53f
00000100: 7fb9 02df 1ae3 e8bf ef8c 5a7d c9f5 e13f
00000110: fd2e 5335 dc66 a0bf 2e52 8cc3 a667 e2bf
00000120: 4e4d d6c9 25c9 f93f bd2c 4fdf d83b fa3f
00000130: 9b1a 1b13 f6a3 693f addc b5ef 7a16 ce3f
00000140: f9eb bdbc 6893 8bbf 4006 c646 a426 f53f
00000150: b3ba c8d5 27dd 993f 3a14 7d65 a4be f43f
00000160: 281b 82d0 1690 f93f 6ac5 2ca2 58fe ecbf
00000170: fe0d f993 622c c03f 97e2 e4dd 6cf4 ec3f
00000180: 86ad c8e8 e362 f83f d352 5acc ab77 fabf
00000190: 97b2 4676 960d ce3f 60c3 4511 09d4 f7bf
000001a0: 564a e4b8 abe3 f33f e20a 9d3e d955 d03f
000001b0: 316d dcd1 6419 09c0 0a84 d794 03da e6bf
000001c0: a1e4 067f 52d8 aa3f 3f05 2fb7 6fbc 8dbf
000001d0: cd6a dee1 99de f33f ac8a 9d7b 706c d03f
-1.6930549631861227 1.5792797212831062 1.8095254592226893 -0.0946828833861215 -0.10276061176278392 0.048536465292213136 -0.03182072485392417 1.4723090364932936
1.58428295766959 -1.3519324808363467 1.573720309599535 0.07430794152659918 2.319761084906195 0.7492337081963872 -1.6213542988751468 -0.0019193094930612556
0.0032764481720309806 1.0085259738734393 0.5835992978990953 -0.9818305599740895 -0.27887043570600967 0.3834071374052101 0.027771009781672466 0.6464623337733718
-0.49106471706148563 1.3700372519398218 1.261052107262381 0.5233630595866774 -0.9449102060543154 -1.659073094048412 -0.2329105562099572 1.327004541469946
-0.7777227740933056 0.5612533043207842 -0.03203476096095235 -0.5751527613925356 1.6116083034765611 1.6396111224192247 0.003129940619007355 0.23506104187592794
-0.013464754352517249 1.321934009989846 0.025257704184862017 1.29654349941235 1.5976780075886357 -0.906048123119189 0.126354524853113 0.9048370679730223
1.5241431325074202 -1.6542165739567067 0.23478966498568773 -1.4892664599139707 1.2430836889585826 0.255239783426232 -3.1373993296998823 -0.7141130358760404
0.052431657797066274 -0.014519570138761593 1.2418459723473234 0.25661861488166937
