dev/Sidekick_QAE/qae_runs/mackey_glass_tau17_n200/4q_2l_2t_sidekick/L5/weights_s2_inst04_L5.npy (npy, 608 bytes, 1 tensors)

array f8 [5, 4, 3]
000000 42 47 ac 13 01 ae 0b c0 99 c4 1d 96 3d a2 fd bf
       -3.459962991423624 -1.8521095146100264
000010 7b cb 87 20 57 4a dc bf 40 2f b6 15 17 f1 e7 3f
       -0.442037374275223 0.748179953008254
000020 67 26 c3 77 a7 f1 e1 3f 0d 8b 33 05 de e9 8e 3f
       0.5607488001925959 0.015094503911716762
000030 72 49 15 20 2e e3 e5 bf 91 bb e4 e4 17 54 f2 3f
       -0.6839819552063047 1.145530599703964
000040 48 f3 89 9a 2b 37 e0 bf bc 78 db d7 c1 71 94 3f
       -0.5067346590363764 0.019965199279675203
000050 e2 cf 99 a4 5e 8e fb 3f ac 61 e3 1b 73 2e d9 3f
       1.722258227321611 0.3934600612970154
000060 cd 30 09 28 ae d9 ef bf c3 4a 5a 2d 42 17 fb 3f
       -0.9953223020507039 1.6931783458318683
000070 26 41 09 1a 80 e5 d3 3f b4 b6 6c 9a 98 e3 fe 3f
       0.31088259260742956 1.930565455647792
000080 79 b3 a0 29 96 d1 e9 bf 4e d1 3a 08 f5 58 c7 bf
       -0.8068342984239357 -0.18240225698321882
000090 17 86 2e 07 45 ed fe 3f 04 24 f3 5f 08 09 00 c0
       1.9329271584068743 -2.0044105049205445
0000a0 0b 56 cf 1b 19 7e f2 3f 9b e5 e9 8a 78 3c cb 3f
       1.1557856642078856 0.21278292448895972
0000b0 5d 90 4e 64 60 47 f9 3f de db e5 5f 2d 2d e7 bf
       1.5799259107816603 -0.7242648003583516
0000c0 00 59 47 6d 7e 37 f3 3f b9 27 47 ba 79 b7 d3 3f
       1.2010483044337548 0.30807345572668116
0000d0 79 64 2b ec 8c e3 0c c0 37 bb f8 56 d9 b2 e9 bf
       -3.6111086321585018 -0.8030821512855714
0000e0 44 d4 7a a8 e2 50 f4 3f 30 fa e9 42 5b dd f7 3f
       1.2697474080316775 1.4915421117617704
0000f0 ef 94 e1 1e b3 00 c1 bf b8 c4 95 19 b4 17 a4 bf
       -0.13283385284299906 -0.03924334347073838
000100 ad 99 b7 92 83 43 bd 3f 88 dd d0 c8 0d cd f5 bf
       0.11431143123591055 -1.362561973988564
000110 f7 98 fe 8e 03 5d d8 bf 03 fb 69 6c c7 ec c1 bf
       -0.3806771179610133 -0.14003842157031707
000120 30 8c 7f cc 9b 5d e0 3f 68 fb cc d1 ee d8 af 3f
       0.5114268297296629 0.06220194159549558
000130 42 2f ef 4d 71 c7 f1 3f 92 c3 b5 7e d8 eb f9 3f
       1.111192039900701 1.620079512558935
000140 0e 00 18 52 1b 2f 9e 3f d9 86 85 b2 f4 00 b2 3f
       0.02947657288132182 0.07032708509862164
000150 af b9 29 51 fb 35 a4 3f 6a 74 c6 37 ba 76 fa 3f
       0.03947434774169111 1.6539861849517146
000160 a3 b0 2f 85 ed fe f6 3f 14 9f 58 75 95 e3 fd 3f
       1.4372382357205786 1.8680624564967205
000170 2e ba 15 e7 9b 9f f1 3f 2b 30 91 5d 21 1e ad bf
       1.1014670397522752 -0.05687050120522515
000180 fb 76 ae 3c 27 4c b2 3f 7d 8a 64 6a 30 27 fa 3f
       0.07147450667840964 1.6345676570860228
000190 55 08 f4 07 f4 fa c4 3f 21 e4 b7 8b ae 7a d3 bf
       0.16390848530142202 -0.30436290401809357
0001a0 a8 a9 4a 74 3c 9b de bf 50 42 77 9a 3f df f6 bf
       -0.47822486263853614 -1.429504016287087
0001b0 72 78 1a 52 49 9f 0b 40 85 21 8b 65 76 fe d1 3f
       3.452776566918197 0.2811561576495694
0001c0 1f 20 ce 7c b8 bf f6 bf 86 02 66 01 19 63 ab bf
       -1.4218068003847362 -0.053490430279457477
0001d0 2f 80 df 13 0b 54 f8 3f 99 30 03 3d 0d f7 e3 3f
       1.5205183769503596 0.6239076797151198
