dev/Monolith_QAE/qae_runs/mackey_glass_tau30_n200/4q_3l_1t/L4/weights_inst06_L4.npy (npy, 896 bytes, 1 tensors)

array f8 [8, 4, 3]
1.541089462871209 -0.004716551552350223 1.447781707814554 0.03187363533984971 -1.0444228090679044 1.4533750459243098 1.3825615322882767 -0.08478468043049489
-1.3709119571014707 0.2569110778491205 0.8367149552900985 0.02719439562763502 -0.7995921165149957 -0.8697426902360814 -1.1394547683865182 -0.4042784301335843
-0.21704849532293116 0.5111104926492857 -0.1337704860921807 1.805934647871164 -0.7102926242239344 0.3689295875356607 -0.036853274212937104 0.4027336108263017
-0.551873345409247 0.7901881135016351 -1.1349120939520374 0.4173399768096176 0.6842944714896247 -0.3418826400053435 0.7505584813116688 0.6932628965269446
0.238745243173831 0.5585952937297669 -0.9025176463423593 0.6446985812739631 -0.4807941831938259 1.0655576284585953 -0.296504169853335 -0.566287781411268
0.3493949243753884 -0.658412594761066 0.17074565120595322 0.1531665172679749 1.1687663879549852 -0.13248742949205708 0.772209597364924 1.9846007738686104
0.46374361833761296 0.13234901756149653 -2.8458335093413387 0.06470723182818455 -0.3177629179925879 4.511543561011169 0.43523434291790347 -0.6324118756405939
1.2387448313317801 0.033996826391478184 2.3802406017421918 -0.3490902498268716 -0.05089847440433311 -0.07119585377527472 -0.17515622723702157 1.525263486346049
0.4033768521211031 1.3204467887735243 -0.3226054710137872 0.3432724408477645 0.0907603977067897 -0.8447972410377748 -0.11197992865804017 0.9713303969683029
0.11238333001194992 0.1427759215110861 -0.33411413376043525 1.2150445189106986 0.8353474565520727 -0.1995295100828516 -0.09340912208575047 -0.34001572274045555
0.2137533807894653 0.7564354408036155 -0.6108378460807178 0.19742953590137313 0.1426933344502924 0.29617199444462017 0.37588752408391796 0.35822283622214945
0.6079535115800327 -0.8848119446466179 -0.9859670310691973 -0.15964040965788784 -0.5234019195473237 -0.28071768595018143 0.45198826033587564 1.654425654514576
00000000: 6fdf b36c 4da8 f83f 3306 adaa a951 73bf
00000010: f6f7 ec26 1d2a f73f 4750 c7ba bd51 a03f
00000020: 254a 02b1 f4b5 f0bf 1b14 3131 0641 f73f
00000030: 392c 5ed7 f81e f63f f699 a6e5 72b4 b5bf
00000040: 8523 5760 41ef f5bf aee4 5529 3b71 d03f
00000050: 4271 2171 5ec6 ea3f bbb3 6bff d8d8 9b3f
00000060: 5248 d234 4296 e9bf 0af8 4f9f eed4 ebbf
00000070: 92dc 57ec 343b f2bf cdb9 f9a2 b2df d9bf
00000080: 7d6c 87be 3ec8 cbbf b346 5264 045b e03f
00000090: d9cc 772b 641f c1bf 6a1e b5ba 1be5 fc3f
000000a0: d537 f498 b7ba e6bf 0184 3fd8 8a9c d73f
000000b0: c87b fdae 6ede a2bf ebee df31 63c6 d93f
000000c0: 7423 424a f2a8 e1bf bead 2595 3849 e93f
000000d0: f9bd 7595 9928 f2bf 357c edbb b2b5 da3f
000000e0: 9935 fc84 bde5 e53f 6a28 79b9 67e1 d5bf
000000f0: 6a02 5f38 9304 e83f 75a1 83ab 352f e63f
00000100: feea c041 348f ce3f 869a c83c 03e0 e13f
00000110: 754e e3af 6ce1 ecbf 372d 4beb 5ea1 e43f
00000120: 412b 3bf7 54c5 debf 4fba e327 860c f13f
00000130: f773 29a0 ecf9 d2bf 3725 a98d 071f e2bf
00000140: f729 6587 7c5c d63f b4be 384a b711 e5bf
00000150: bd90 ee55 feda c53f c30b 41df f59a c33f
00000160: 30e4 4e62 44b3 f23f b955 661c 59f5 c0bf
00000170: a1de cae6 f0b5 e83f 901c b6bd ecc0 ff3f
00000180: bd47 9fb6 f9ad dd3f 38cc 0a07 d0f0 c03f
00000190: 0edb e35b 44c4 06c0 4449 8434 a790 b03f
000001a0: 7138 2a47 3a56 d4bf e316 4413 d20b 1240
000001b0: a36b 3b25 e1da db3f ce4e 6fd4 b73c e4bf
000001c0: 658b aa19 e6d1 f33f 13d3 0933 0868 a13f
000001d0: aac0 a895 bb0a 0340 f1f7 96a1 7e57 d6bf
000001e0: 2a3f f765 5d0f aabf b95a 9337 e439 b2bf
000001f0: 823d d6ed 846b c6bf 423a 7aaf 7a67 f83f
00000200: 4eb5 f424 edd0 d93f 843f decf 8c20 f53f
00000210: fef3 e06a 91a5 d4bf a3ca c3f8 2cf8 d53f
00000220: 8230 eccb 123c b73f c343 4039 9408 ebbf
00000230: c70a 6573 b7aa bcbf aadd 127c 2315 ef3f
00000240: 9253 0467 27c5 bc3f b4ef c53c 7b46 c23f
00000250: e179 683f 2062 d5bf f27c 7e85 d270 f33f
00000260: 8c03 d696 2abb ea3f a145 32d8 2e8a c9bf
00000270: 70a1 8104 a9e9 b7bf a6f2 524e d1c2 d5bf
00000280: 5d39 f351 455c cb3f 0f2e f918 b834 e83f
00000290: aa6c 82cf fb8b e3bf 50fd fafb 5e45 c93f
000002a0: f31c 6972 c643 c23f 005e 8861 7bf4 d23f
000002b0: bd8c ba8b 8a0e d83f aa49 9079 1fed d63f
000002c0: e82f 37ec 5a74 e33f a1c1 ab23 6150 ecbf
000002d0: 9e0b 2cbb 0a8d efbf c8e2 4cd1 186f c4bf
000002e0: f3d1 e361 b5bf e0bf 2426 2450 47f7 d1bf
000002f0: a162 142b 60ed dc3f 21db fc08 8778 fa3f
