dev/Stacked_QAE/qae_runs/mackey_glass_tau30_n200/6q_4l_2t_stacked_timing/L3/weights_s2_dec600_enc500_inst02_L3.npy (npy, 560 bytes, 1 tensors)

array f8 [3, 6, 3]
00000000: 5a87 a466 0103 babf 7109 8946 c9d1 f53f
00000010: 554b e0b4 90eb ecbf 988b ab25 e8a7 d4bf
00000020: eab1 a66a f172 fa3f 16d2 9c2c fea0 ba3f
00000030: 2a82 5a0b e638 b43f 7df3 fa5c 5e4b ed3f
00000040: 65bb 2d53 89f0 fb3f ec00 080f 11f3 bb3f
00000050: de04 06f1 f5fb d43f 9c29 cd6a df03 fabf
00000060: 1bde fa84 a571 d03f 76a9 4a84 24c5 f03f
00000070: e975 1a41 540d f83f 10d0 3f9f f217 10c0
00000080: 1450 3de1 9e62 f63f 1745 9b05 6675 9dbf
00000090: 44b8 c804 1421 ffbf f584 8bc9 8760 e0bf
000000a0: 671c 5dda ae8f cd3f 8fe6 bd49 3210 1340
000000b0: b0b9 8cc5 7dca d0bf 7ae5 113d c806 febf
000000c0: 35a7 4ff1 079a e73f f275 3454 2a58 a73f
000000d0: 5add 6530 54a9 d4bf 569a 5b5b ce9b fa3f
000000e0: 04ac 52a1 7aa0 b5bf 6fec 3f1f 109f 00c0
000000f0: c361 cd0e aa96 efbf a899 0bc3 2cb9 e1bf
00000100: 7bc7 e60c df26 fa3f 5403 c393 d16c e93f
00000110: 8a52 882e 62e0 ce3f 4b2a 3f6c d583 f23f
00000120: 65fb 51e9 73ab df3f 6503 0ddd fdd4 c83f
00000130: 4c85 ead2 18f4 c73f b21b 7bf7 2e93 f2bf
00000140: 8aaf 22ae 3aa0 f3bf 6390 090a 3e56 f83f
00000150: 3530 a13f 4b8e f83f 2f14 d999 db03 f9bf
00000160: 60ab 8cac ade6 f8bf ea17 0e12 07b2 bb3f
00000170: b650 991b d1ab c6bf cd3e a4c3 3152 fe3f
00000180: 9c9e 0e08 7672 f7bf f3f7 ee46 ad55 afbf
00000190: ec0f c0fe 3e05 debf 8368 3a50 0c0a fe3f
000001a0: 717b 8af5 419c b1bf 64c3 3cbb e4ca ec3f
-0.10160835987019592 1.3637173419270676 -0.9037555248963637 -0.32274821928711495 1.6530622640667567 0.10401905621694882 0.07899320389925238 0.9154502693196346
1.7462247132459308 0.10917765252088757 0.3278784612412674 -1.625945489113838 0.2569364355690326 1.0481305282251845 1.5032541792964997 -4.023386467237302
1.399077300874528 -0.028768152324862486 -1.9455757319333467 -0.5117834984231694 0.2309473577717853 4.765816833701719 -0.2623590878673907 -1.8766558061164162
0.7375526154621413 0.04559452321903369 -0.32283501364095957 1.6630385941185941 -0.08447996557758591 -2.077667469156544 -0.9871416367632765 -0.5538543519476677
1.6344900611843218 0.7945335279438077 0.24122264167876423 1.1571859577549215 0.4948396471517554 0.19399998944757182 0.1871367483009102 -1.1609334628317183
-1.2266184618156069 1.5210552589496948 1.5347397313626179 -1.5634418496786215 -1.5563179722036793 0.1081852358894079 -0.17711843345262474 1.895066990113196
-1.465444594834401 -0.061200537594672165 -0.46907019498780644 1.8774531492149726 -0.06879055256511692 0.899767270753824
