dev/Stacked_QAE/qae_runs/mackey_glass_tau30_n200/6q_4l_2t_stacked_timing/L3/weights_s2_dec400_enc500_inst07_L3.npy (npy, 560 bytes, 1 tensors)

array f8 [3, 6, 3]
-0.25494149015115813 1.440018464921838 1.8366209989566293 -0.23382204694203854 1.2954575462856115 -1.6829154413344287 -0.058012929548347185 0.8552611455191279
1.5292725689745132 0.07079837784463199 0.5381278031895704 -3.331396143682652 -0.07209015514861927 1.1659653722251475 1.4417297275696401 2.8101687068510426
-1.4921161477931548 -0.2520862473825306 1.7444398524341032 0.6735277176813445 1.0632048682834052 0.8434357911545213 -0.14231764930430085 0.15087591342686762
0.37208698243477506 0.012823143347851952 -0.2337644983609738 1.4254145017754944 -0.02907854080860084 0.10510751390810796 -1.5119959524920739 0.746504006912261
2.968465233192796 -0.16072902240856515 0.28519082506467774 1.5097583684274523 -1.8421379617874427 -0.0813882585494006 2.3237024496522345 -0.5504122178098728
0.07686825294594808 -0.7915193976264037 0.7871568843994942 0.07254617623661383 0.7378071263950109 -0.0451046277530073 0.1932044313088327 0.03590611930906037
0.2787167696334063 -0.005888078790092227 0.25544671494364457 1.571341013193554 -0.07068087052654538 -0.4693531832522173
00000000: 4bef a51c f650 d0bf 4f9b 47cd 500a f73f
00000010: 30a6 5ab3 cc62 fd3f 1b94 597e e1ed cdbf
00000020: 2173 2ab1 31ba f43f bb6f e7bd 38ed fabf
00000030: e783 4fe6 deb3 adbf b069 319f 4c5e eb3f
00000040: a3a5 6683 e677 f83f 03da 73ad d71f b23f
00000050: 9a8f 78cc 5738 e13f 9d19 7905 b3a6 0ac0
00000060: 3015 ba1a 8074 b2bf 8c9b 5f4e cba7 f23f
00000070: 4e52 d930 5311 f73f bc57 21bb 397b 0640
00000080: 80ae 892e b5df f7bf 9ee0 115b 2e22 d0bf
00000090: 56b2 40c3 39e9 fb3f 3782 0c00 8a8d e53f
000000a0: 799a a31b e302 f13f 131b 690e 6dfd ea3f
000000b0: b2e9 b3f8 7637 c2bf 4215 f6e4 e64f c33f
000000c0: a5c7 34eb 45d0 d73f 41d0 7c2a 0543 8a3f
000000d0: a48e b6bd feeb cdbf 0aeb c56f 7fce f63f
000000e0: 2043 27d7 c3c6 9dbf a497 cc76 53e8 ba3f
000000f0: 8a34 faaa 2231 f8bf 02ad 005f 5ce3 e73f
00000100: 3202 3fb3 6abf 0740 b1a4 61c3 c492 c4bf
00000110: 3c69 b104 9140 d23f b221 1464 f827 f83f
00000120: fc8d c9a7 6579 fdbf 6281 bf64 dcd5 b4bf
00000130: a821 574f f196 0240 cffd 5915 fa9c e1bf
00000140: 8de5 8048 a3ad b33f 8e8f de7c 2054 e9bf
00000150: 8525 6aa2 6330 e93f 06d8 62de 6292 b23f
00000160: f7e9 d3b0 1d9c e73f 13e1 312a f417 a7bf
00000170: 9cf4 f43c ecba c83f 9b3f 5170 4962 a23f
00000180: 1406 9bdc 7ed6 d13f 797b 6f1d 191e 78bf
00000190: fc6d a32d 3d59 d03f 237a 6879 3624 f93f
000001a0: 4144 5d3b 2418 b2bf 88df 15ef e109 debf
