dev/Stacked_QAE/qae_runs/mackey_glass_tau17_n200/6q_2l_4t_stacked/L5/weights_s2_inst05_L5.npy (npy, 848 bytes, 1 tensors)

array f8 [5, 6, 3]
-1.6951630928803607 -2.0307706258862424 0.8619134993049978 0.17678456391674882 2.8738407050899526 -1.725376721667772 -1.5413030234478804 1.6749196804338724
-0.06942054566235055 1.2342646228751526 4.606921571607552 4.605370528183057 0.7077050264335059 -0.3115316906398449 0.5408947851430088 1.4968697058285874
1.5583650912881086 -0.3637515487696862 1.7259589617312427 -0.04170692841893121 -0.09056032626758322 -1.9968665751703565 -0.3601111191419953 0.46653126029404235
3.316526345181319 0.8562706847430267 0.10661661850332795 -0.4861993749621791 -1.0107658863322693 1.2864494449500408 -1.7750701705218452 0.7297571055875011
-1.3361812069299903 1.7345199058470262 0.3584252321627011 -1.6287404371814043 1.649417304052844 0.017902991445611707 2.6977608211648625 -0.7858417591628668
0.3779703330353096 1.5523961311311583 1.585465611246889 -3.059089993956319 0.09125053821493732 1.5758462195695788 -0.07247656995631489 -0.7125257955252784
-0.13561584336999571 -0.11305002703958268 -0.06229892278183032 1.5860469980096694 4.040225718880237 0.1604187177444035 -0.8069226422907257 0.22549045085107336
1.5248931206310115 0.13537494799112143 0.7468740836391956 -0.00033247521560159543 -0.012092994759421887 1.8394945194421444 0.8015457096148013 2.797976250960199
-0.1123975300029777 0.2021557450527932 1.4559193728220599 0.21603776324010746 1.3545675026469064 1.2249999982503408 -2.1120701037144785 -0.368155023021452
1.1401701272157154 0.01990936747177777 0.0608071618578168 0.05951462201546541 0.06729739115336235 0.36298389783345497 5.923160566420928 -0.11021705205286736
0.0066290293558726515 -0.0022188438263917322 -0.5502389335766749 0.2811023385518097 0.6724222528603555 1.4609231273659926 0.11450016808302825 -1.3839743191147653
1.909423324238081 -1.5786934442720983
00000000: f2ea d455 631f fbbf f3de 7eab 043f 00c0
00000010: 49de 6f9e cb94 eb3f 2de3 3a68 e0a0 c63f
00000020: 0d33 1232 a0fd 0640 027c 0d9f 249b fbbf
00000030: fdf3 ee5b 2da9 f8bf 7a3e 2e94 78cc fa3f
00000040: 274f 4a7d 8bc5 b1bf a3bc dd42 8cbf f33f
00000050: 5a2a 35d9 7c6d 1240 ae08 7240 e66b 1240
00000060: 28e5 f702 85a5 e63f 69ce bd9d 22f0 d3bf
00000070: 7684 9894 024f e13f c282 0ea6 2df3 f73f
00000080: bbf7 e43b 10ef f83f 1e73 7593 b447 d7bf
00000090: 19fb ed24 879d fb3f 52df 264b 9c5a a5bf
000000a0: 6565 a227 f62e b7bf b850 ad5d 2af3 ffbf
000000b0: 5903 e981 0f0c d7bf a492 61ee a5db dd3f
000000c0: 6702 e7f6 3e88 0a40 9dd5 6fc7 9166 eb3f
000000d0: 2191 ae09 3a4b bb3f b715 b3fb e31d dfbf
000000e0: 515a 9bd9 182c f0bf d148 6003 4c95 f43f
000000f0: 89f1 a7fa af66 fcbf b3b3 d092 2b5a e73f
00000100: b4b4 948b ff60 f5bf cffb ddf1 97c0 fb3f
00000110: f1cc 8c62 70f0 d63f b7de f521 520f fabf
00000120: b4d0 2566 0364 fa3f 84b2 096b 2955 923f
00000130: 5faa 1aa0 0395 0540 9cf0 ed9d 9d25 e9bf
00000140: 2aac cf7a aa30 d83f f452 5a53 9dd6 f83f
00000150: 01cf 5330 115e f93f 7e81 bc2c 0479 08c0
00000160: 4f24 60fd 315c b73f a839 8986 aa36 f93f
00000170: f749 b011 d38d b2bf 6ccc aae5 02cd e6bf
00000180: c2fa 0b26 dc5b c1bf 9169 f2b8 d8f0 bcbf
00000190: 4b15 d9f7 a4e5 afbf 99ed 25d1 7260 f93f
000001a0: e031 4cee 3029 1040 a371 30bd 9988 c43f
000001b0: 614c e16e 4fd2 e9bf 999a fbff dedc cc3f
000001c0: d816 3054 f665 f83f 96e7 285f f753 c13f
000001d0: e4ba 6e7a 64e6 e73f 5454 802d 02ca 35bf
000001e0: e3f2 0448 36c4 88bf cfcd 22ce 916e fd3f
000001f0: 0e6e 2130 43a6 e93f b5de 665f 4162 0640
00000200: 6893 83a3 15c6 bcbf 24a2 d94c 3de0 c93f
00000210: 2323 be1c 724b f73f bb9b e81b 20a7 cb3f
00000220: 577c 41f9 4eac f53f 455d 2199 9999 f33f
00000230: 0d81 b202 85e5 00c0 8e0e ef15 da8f d7bf
00000240: 5348 0408 233e f23f 298a b308 1f63 943f
00000250: 2674 15c7 1d22 af3f 3e65 6156 b378 ae3f
00000260: 931c 1cde 663a b13f b8d5 8ad0 203b d73f
00000270: 5bf0 e600 51b1 1740 0052 074a 2f37 bcbf
00000280: 2768 9a84 0a27 7b3f 43c6 6ab5 402d 62bf
00000290: d853 16ae 8e9b e1bf 652f baa9 94fd d13f
000002a0: 6d69 24ac 7b84 e53f 981c e0ed f05f f73f
000002b0: 9398 4d0d e24f bd3f e9a0 7141 c224 f6bf
000002c0: 9327 bd78 ff8c fe3f a3ee 980e 5442 f9bf
