dev/Stacked_QAE/qae_runs/mackey_glass_tau17_n200/6q_2l_4t_stacked/L5/weights_s1_inst01_L5.npy (npy, 848 bytes, 1 tensors)

array f8 [5, 6, 3]
1.5753209183815944 1.561078605858009 -1.7290163243195267 -0.013900578486296913 0.1299439104354486 1.5819888017268438 1.569698363731456 1.572978539126372
-0.049761090647191114 -0.032611286458964675 3.065440324795969 1.5116404877321739 -0.00035385192056040966 1.3533487037032954 1.5700793867134988 0.0011294356138181697
1.39069379147973 -0.00020809007237282745 -1.579203386693624 -1.1002462864370237 1.6341607197674122 -0.5460263381563121 -0.265718202098278 -1.3255644367228114
1.5686426070671597 0.9713043892829633 0.002835595909463379 -0.5816893647246828 0.00846410062740534 -0.9908017737148422 -1.5709620182363704 -0.20815046727164108
1.5710946476833618 1.5703608228620178 -0.6933831864815849 1.570599855493516 0.9503806005804352 0.008788621917891214 -0.9347913440623378 0.48769606927618836
1.3042879981526148 -0.13810542044866872 1.5612031287925499 1.5595183599587632 -1.5963189761137702 -0.2914275425038072 0.0003649332755056991 -0.2549642607098127
0.3285483893354934 -0.0003261799791472426 0.8086535857293634 -0.007188057668994889 1.637752706103424 0.1974528963267261 -0.3308878965761782 0.19777164738396208
-1.4484502673915909 0.7309920385370408 7.409591341952136e-05 0.5218565495981349 0.08607292725350152 -1.5690898216716882 0.024838951510108936 -1.5031255545498532
-0.19809935898935568 -0.5345573306603785 -0.7764440307854962 -0.06698796405851008 0.8684287068221398 0.6746491844481886 -0.00023037298155550502 0.8714978690013078
1.4368897839411523 1.2883163656958891 0.20209594145344206 0.08049652238411835 0.009394032507141159 0.2266316109330375 0.6490945814758209 0.7570703631218211
0.17517607806294686 1.6050490757987743 -0.02262933565819912 0.032247137505008044 -0.03636346057623008 1.5856510695475727 0.025841451976742764 -1.4412914173556866
0.081705336300026 0.0858726902948715
00000000: 4875 12b5 8334 f93f a753 6a8f 2dfa f83f
00000010: 6d3d 7305 0daa fbbf 8ef8 f30f e877 8cbf
00000020: bb3a d186 00a2 c03f 5fe1 607d d34f f93f
00000030: 27fb 0c08 7c1d f93f d4b8 6d8b eb2a f93f
00000040: eccd e221 497a a9bf 3abb a431 6db2 a0bf
00000050: d9b4 b693 0586 0840 25e8 a1ef ad2f f83f
00000060: 20c3 2a6d a630 37bf 99d5 67f8 50a7 f53f
00000070: 72ee 2090 0b1f f93f e8e9 8d41 3281 523f
00000080: ae7d 1222 4840 f63f 7db8 651c 5846 2bbf
00000090: 0e4e 39c5 6a44 f9bf f0ad 9cd9 9b9a f1bf
000000a0: 13f1 fcb5 8525 fa3f 175a 243a 0c79 e1bf
000000b0: 8cb2 fdea 8601 d1bf 3371 070e 8335 f5bf
000000c0: 3873 87fd 2819 f93f 81cf 4df1 ec14 ef3f
000000d0: 2721 44f6 ac3a 673f 8c8d bd03 339d e2bf
000000e0: 89fc 135b a055 813f bc91 ddeb a5b4 efbf
000000f0: 7855 b911 a922 f9bf ab16 caac aca4 cabf
00000100: e987 2b24 3423 f93f d1ca 91ab 3220 f93f
00000110: 121c b1ef 3130 e6bf d226 6750 2d21 f93f
00000120: a8dd c793 8469 ee3f 86c9 b6dd c4ff 813f
00000130: ab9c 6a89 cfe9 edbf 6674 fb92 6936 df3f
00000140: b617 8a17 5dde f43f 311a 1d3c 70ad c1bf
00000150: e43a c921 b0fa f83f 158d 1886 c9f3 f83f
00000160: 1b49 46c4 858a f9bf b647 0db5 bfa6 d2bf
00000170: fae8 c77b 90ea 373f 0a70 599e 5551 d0bf
00000180: e35c d6d2 ef06 d53f cff3 d157 6460 35bf
00000190: 2106 107c 7de0 e93f 05f3 c289 3971 7dbf
000001a0: 3265 7a2e 3c34 fa3f 67a4 1cf2 2246 c93f
000001b0: 6df6 9b6d 442d d5bf 668a cbd2 9450 c93f
000001c0: f844 0530 da2c f7bf 10e5 646a 4964 e73f
000001d0: 4f75 8019 7e6c 133f ca46 b781 0cb3 e03f
000001e0: 54f1 9f17 e008 b63f dd0f c9ed fd1a f9bf
000001f0: 1b84 9cd1 616f 993f fd2c a961 cd0c f8bf
00000200: 63e2 1bde 515b c9bf 8fbf a0f9 171b e1bf
00000210: 6dbd ec26 a1d8 e8bf 635f db8a 1f26 b1bf
00000220: 5dad d6ff 2aca eb3f 1e4c efe2 b996 e53f
00000230: 4833 e4d7 0832 2ebf 2e9e bc7f 4fe3 eb3f
00000240: 76bd 5f24 80fd f63f f60b 199f f19c f43f
00000250: da32 99a1 47de c93f 83de 148b 6b9b b43f
00000260: a075 2ab3 2d3d 833f 973d 99be 4302 cd3f
00000270: f661 eeff 61c5 e43f 4f21 4ca0 eb39 e83f
00000280: 0334 2973 2b6c c63f ff7d 90f0 47ae f93f
00000290: dc24 5402 252c 97bf ec7e f261 b282 a03f
000002a0: 707a e343 3b9e a2bf 1d30 e9a7 d35e f93f
000002b0: d22c 7c7c 2e76 9a3f 44c5 d896 870f f7bf
000002c0: 223a 5113 a4ea b43f 559e 6fac c0fb b53f
