dev/Sidekick_QAE/qae_runs/mackey_glass_tau30_n200/6q_4l_2t_sidekick/L5/weights_s1_inst01_L5.npy (npy, 848 bytes, 1 tensors)

array f8 [5, 6, 3]
0	0xbff91956b1fc15df	-1.5686861946609196
1	0xbff8ff65f008ab49	-1.5623530746767804
2	0x3ff6910ad0fd3561	1.410410705913215
3	0xbf807c1d1169db5d	-0.008049227804105713
4	0xbfbb760ab168fc94	-0.10726992446233147
5	0x3f8313a4c049826d	0.00931481086553384
6	0x3ff9236cd6b6dbda	1.5711487185742414
7	0xbff9188ba26415a3	-1.5684925406834302
8	0xbff69193b0095b64	-1.4105412365367664
9	0x3fe18144725bd5c7	0.5470297082489929
10	0xbfb17a3bc3fe94e8	-0.06827138457318294
11	0xbfe154d3faae0719	-0.5416049858178865
12	0x3fe7a70612d1e7cf	0.7391386382653254
13	0xbfc386014145eb2e	-0.15252700507320455
14	0x3feb8cd7377bfc92	0.8609424670866181
15	0x3f75843caee4e1bd	0.005253064197227206
16	0x3ff66541848f8530	1.3997206857823805
17	0xbff9084a217e7247	-1.5645238216740311
18	0xbfc3e2fca00dc1ac	-0.15536458792804575
19	0xbf6378d43140db9a	-0.002376951635621305
20	0x3fc20480a7baa804	0.14076240720652333
21	0xbfedcb210103452f	-0.93104601095016
22	0x3f86cb0a352317ab	0.011129455324759471
23	0xbfa1bc921567343c	-0.034641804802597126
24	0xbfb5919c954223c8	-0.08425310749056714
25	0x3f8df699d315aeac	0.014630510095876424
26	0x3fb50f28f613a3f8	0.08226257331592979
27	0x3fa4b1d0278e8140	0.04041910632008916
28	0xbf753af1921283f0	-0.005183166155945593
29	0xbfa290c50891863b	-0.03626075486750976
30	0xbfc522cf25307fd4	-0.1651247912968744
31	0x3f8b4dd4bb900952	0.01333204457660445
32	0x3fc4e5738ccc37b5	0.16325230002297322
33	0x3ff8eb6b3ccfec4f	1.5574753165699524
34	0x3ff0066218f22aca	1.0015583967639707
35	0x3f99b983256d7355	0.02512173572482664
36	0x3fb445a966e1eabf	0.07918795358447549
37	0x3fc8267b25387c6d	0.18867434804357988
38	0xbfbbb0a89c1384f3	-0.1081643467946554
39	0x3fe9a930a098ba4f	0.8019030701305584
40	0x3f9874f5181cafd7	0.023883657070811495
41	0x3fe9acd4f03b7db5	0.8023476306952292
42	0x3fb0c6cbb377095f	0.06553338176221278
43	0xbf54dc7d4f5bd522	-0.0012732719164295155
44	0xbfa455ceabe5c98d	-0.03971715782508332
45	0xbfe12a0150bbe944	-0.536377580341004
46	0x3ff5cbe70d346d0f	1.3622808948337626
47	0x3feb8c24f994f402	0.8608574747701143
48	0x3fce5887b54d73ac	0.23707672455466644
49	0x3ff914a355fa5185	1.5675385817058622
50	0x3ff91d0a49abca5b	1.569589889314236
51	0xbff222798b2d6ee2	-1.1334166943187758
52	0x3f951836153892c8	0.02060017113230364
53	0x3fdb7aba3a1640e1	0.42936568901587974
54	0x3fe91e2d91f3b0c8	0.7849338389037479
55	0x3ffcf02c596cdc19	1.8086360448048764
56	0xbff41cb0b88690ae	-1.2570044715912831
57	0x3ff7def040d639d5	1.4919283421219138
58	0x3ff922ecd11c922c	1.5710266273901068
59	0x3f908e34b8332dd1	0.01616747259394719
60	0x3fd459e0c6efeb24	0.317985719942657
61	0xbfb6584df9604cb6	-0.087284921057562
62	0x40009b2ab2746adb	2.0757650319841168
63	0x3fb61cec6c3f197d	0.08637883799301523
64	0x3f04083f0d9c4720	3.8208412389674354e-05
65	0xbfb7d4f5d682fbd8	-0.09309326636410675
66	0xbfc9a68d26df6c1c	-0.20039524458010838
67	0xbfb863ff7a0fb163	-0.09527584772121638
68	0xbfd79dbb3175de12	-0.3690021498691475
69	0x4001f2071d02cb35	2.2431776300885766
70	0x3fd2d4c394cd750e	0.29423608333111495
71	0x3fccb29c12ae5d3b	0.2242007342544897
72	0xbfc72b087216304c	-0.1810007626594391
73	0x3f36afbb97ed03b9	0.0003461678497168014
74	0x3fc9de47a1a34cdb	0.20209594147181673
75	0x3fb49b6b8b8b31f7	0.08049652249173521
76	0x3f833d2db89cf63e	0.009394032665677728
77	0x3fcd0243bea2da48	0.22663161095052176
78	0x3f93f41b226fa5cb	0.019485877968610937
79	0x3fcface7d27fba72	0.247464158804593
80	0x3fc66c2b73620de7	0.17517607816635847
81	0x3fa30bacfab60edf	0.037198453525915325
82	0x3f9f43c716c3fb54	0.03053198887300408
83	0x3fa082b2624e7a08	0.03224713754683611
84	0xbff4a0358cf4ccf1	-1.2891135698417282
85	0x3ff91234d0708d21	1.566944898812672
86	0x3f9a762e7bc846ec	0.025841451935838686
87	0xbfc0b7e4c9b834a8	-0.13061199044787952
88	0x3ff8d9306cb0b7c0	1.5530246968951218
89	0x3fb5fbc0abf958c7	0.08587269018730402
