dev/Stacked_QAE/qae_runs/mackey_glass_tau30_n200/4q_2l_2t_stacked/L4/weights_s2_inst01_L4.npy (npy, 512 bytes, 1 tensors)

array f8 [4, 4, 3]
000000 4d 33 2e 1e 39 0a 00 c0 36 c5 dd 02 0d 61 d4 3f
       -2.0049917562340966 0.3184235122672193
000010 4e bf 64 96 f6 74 e1 3f c1 eb ac eb 97 12 f5 bf
       0.5455277383207233 -1.317039414031328
000020 e0 54 e8 2a b0 c9 f7 3f d9 eb 0b 11 d4 55 c8 3f
       1.486740272147749 0.19011927444793633
000030 9d 4d a9 05 df 6e e3 3f da 9f c1 3b 49 1e f9 bf
       0.6072840796063478 -1.5698940595848314
000040 2b 18 ec 3f 17 a3 eb bf 13 c5 82 e0 c6 01 fa bf
       -0.863658547256596 -1.6254338045076266
000050 31 b7 8b 43 29 21 ec 3f ce f6 98 83 4e a5 c4 bf
       0.879047996449776 -0.16129475999507864
000060 4e 7c 26 1d 78 8b ea 3f a2 6e ff f0 94 bb d3 3f
       0.829525048193213 0.3083240846151317
000070 51 2d a6 09 49 c0 e5 3f ac 3b f5 58 84 9a db 3f
       0.6797223270854521 0.43130596816348077
000080 e8 9f 8a eb 3e 83 e3 bf e8 8b 20 3c 97 00 04 c0
       -0.6097712135715456 -2.5002884576256186
000090 7a bd 1a 0d e4 ad f9 bf cd a0 eb 74 bc 33 dd 3f
       -1.6049538146870348 0.4562827245522499
0000a0 b0 0c 13 c4 d0 d0 df 3f 4b 17 9d 8a 47 18 f6 3f
       0.49712008617297965 1.3809276022525008
0000b0 7b 2f ea b2 72 a6 f8 3f b0 de 3c 7a ae 01 e3 3f
       1.5406367291315906 0.5939552676636222
0000c0 95 16 61 b4 01 c7 d9 3f aa 52 1c 73 46 ec f2 bf
       0.4027714025035974 -1.1826843735226853
0000d0 bf 7a 39 f1 c0 05 dc bf e7 be 65 04 18 b4 e7 3f
       -0.4378511768062871 0.740734108532675
0000e0 40 06 72 a8 32 da f5 3f c3 aa 6e 53 40 33 b2 3f
       1.365770967473864 0.07109453236504763
0000f0 f0 3a fc 9e cb 76 f1 3f 82 9d 0b 93 e6 6c f6 bf
       1.0915027819025305 -1.4015870803794717
000100 4b 4c 0f 24 46 02 e9 bf 83 a2 4f 86 70 4e f9 3f
       -0.7815275863926073 1.5816502806211765
000110 35 95 b0 09 9f 22 e3 bf c4 47 ef 69 b1 b3 fe 3f
       -0.5979762257817699 1.9188703668664724
000120 8c ed 56 cb d5 38 ec bf 06 36 54 61 88 b6 00 c0
       -0.8819378825641464 -2.089127312071244
000130 fe d7 af 4d 65 55 14 40 f2 fb 37 15 1a 37 f9 3f
       5.083394254548692 1.5759526089529996
000140 04 ab d1 8c af c0 f6 bf 96 a1 8c df 29 50 d7 3f
       -1.4220424175970843 0.3642677958582906
000150 ba 37 8b f4 df aa 0e c0 a7 0b 1d 3d e4 f0 d5 3f
       -3.8334349732385506 0.3428278538523792
000160 00 59 a5 59 bb 83 b3 bf 49 07 ba 7f b2 fb fe bf
       -0.0762288183080706 -1.9364495267222586
000170 8c 8a 9e 71 6b d7 05 40 16 bf f0 06 7f 43 cc 3f
       2.7301854015834746 0.22080982054603088
