dev/Monolith_QAE/qae_runs/mackey_glass_tau30_n200/6q_2l_4t/L2/weights_inst02_L2.npy (npy, 704 bytes, 1 tensors)

array f8 [4, 6, 3]
0	0x3fba7230cb3d0801	0.10330491029620249
1	0xbfed4c41fc3d273b	-0.9155588079968092
2	0xc0157a35fde2e64f	-5.369346587156158
3	0x40093c38cc7c687d	3.154405210062633
4	0xc00179ac1f68762d	-2.1844103292230757
5	0xc00a125fea805d9d	-3.2589720077919098
6	0x3fff4f83a9b0b080	1.9569126728556796
7	0x3fff83444aea5c9e	1.9695475508104106
8	0xbffb631371dc1f35	-1.7116884658480107
9	0x3fed34a01b367ea8	0.912674000883233
10	0xbffd3cdf9dc7cd71	-1.8273616946506446
11	0xbfee833b5f53d879	-0.9535195218911802
12	0xbfe4943bef0e552e	-0.643094984918809
13	0xbfed4f8edaa8098e	-0.9159616728432398
14	0xbff35a9998fe9f72	-1.2096191383697854
15	0x3fd7d2db5856fad6	0.3722446787541406
16	0xbfea0234dc25697e	-0.8127693462113681
17	0xbfe8fbe89f7621c5	-0.7807505716783046
18	0xc014ba82ddbed882	-5.182139839909839
19	0xc00c3d1f5cccb5c1	-3.5298449754688765
20	0xc0112622503c9deb	-4.287240270328293
21	0x4020ab35a7b40b77	8.334393730857967
22	0xc00658472952d771	-2.793104479637741
23	0x40211e6f9f6ab3c9	8.55944536378401
24	0x3fd0b1dabcbd0d2a	0.26085537368290324
25	0x3ffa5c365e17060d	1.647512786425412
26	0xc015d1a79d256d69	-5.454740958604227
27	0x4001211819e55de1	2.1411592505571524
28	0x3fe637b4159df5e8	0.6942997381408391
29	0xc022190c5ce1144a	-9.048922445750708
30	0xbff847810e964184	-1.517457062702392
31	0x3fe5c371aedb71a2	0.6801079192332973
32	0x3f665589e11ffc73	0.002726334853832274
33	0x401370a6ae008c4a	4.8600108325800395
34	0xbfaf1facc369c3cf	-0.06078853497900349
35	0x3fd4369dbbb3877f	0.3158335049648641
36	0x3fc071a002aa7c47	0.12846756105588694
37	0x3f96780dd087a36c	0.021942344525004584
38	0xc0257949d9268e4f	-10.736891542393236
39	0x3fc869ccc0310a7f	0.19072875389436558
40	0xbf9e51085451e9e9	-0.029605989595873714
41	0xc0048391665982cc	-2.5642421718660895
42	0x3fb24cfc35c85009	0.0714872008614408
43	0x3fab8f3c5e9ecb94	0.05382717757256397
44	0xc011b588e6dc1b1d	-4.42728005140705
45	0x3f837038bc33f010	0.009491389506813191
46	0x3f860fb10a81bb5c	0.010772116788044954
47	0x4015eae38536746a	5.479383546303419
48	0x3fdbdb4904381a0a	0.43525910770441156
49	0xbf424baefde21fe8	-0.0005583385898413314
50	0xc0063a49ea3c912c	-2.778461294148789
51	0x3fbf497a73b07936	0.12221494030425081
52	0x3ff198cc66620e33	1.0998043059670521
53	0x4013bf064a74faae	4.936547435178609
54	0xbff614322ffb8f3c	-1.379930674965137
55	0x3fb283c44547a58d	0.07232310000804017
56	0x401445eafdae7d4b	5.06827923181056
57	0x40044f65dfdf9f2e	2.538768528949638
58	0xbfb3a8e431d4dccb	-0.07679582802380762
59	0x3ff14c6e8f30481e	1.0811601250939087
60	0x4011b18bd3d84c52	4.423384962155142
61	0x3f688561c5ecf7f3	0.0029932889587191923
62	0x40139da7379fae03	4.903958195801809
63	0x401212b6cb409f42	4.518275428599567
64	0x3fa2ca7bc85064f9	0.0367010767005897
65	0x3ff6c66c713b4bfe	1.4234432623968583
66	0x3fada1da82957bd0	0.057875469627780896
67	0x3f9d4ae674aac251	0.028606034155645613
68	0x3faa8a9fbfbe34cb	0.05183886733639439
69	0x40124f26fc9dd964	4.577297160276746
70	0x3fad2e5c9012e8de	0.05699433573450262
71	0x3fd960343ee065c8	0.39649683132446656
