dev/Monolith_QAE/qae_runs/mackey_glass_tau30_n200/6q_2l_4t/L5/weights_inst04_L5.npy (npy, 1568 bytes, 1 tensors)

array f8 [10, 6, 3]
000000 68 b1 fa 72 c9 7c 2a 3f 76 60 3f 58 0f 05 e3 bf
       0.00020208319755477965 -0.5943676684937731
000010 f2 e6 b0 29 77 53 a4 bf b8 74 e0 e4 4a 02 94 bf
       -0.039699291075931856 -0.019539995402841653
000020 1c 11 6c 49 5a 13 f6 bf bd a3 ac 79 0c 78 fa 3f
       -1.3797247760822478 1.6543087723641599
000030 99 2c 99 8c 17 93 b7 3f 26 b5 10 99 b6 bc d9 bf
       0.09208819563461858 -0.40214314410953234
000040 72 eb 1a f9 f4 95 d0 3f 38 d1 5c 1f dd eb e2 bf
       0.2591526444118052 -0.591291962866797
000050 51 7d 07 a0 c4 a5 c6 bf 94 8e 15 9f d5 8a 01 40
       -0.17693383993080627 2.1927902630284937
000060 a5 49 48 7b a3 7d ed 3f 73 40 d2 16 47 99 ec bf
       0.9215867431506025 -0.8937106557587086
000070 31 d2 a0 f7 c1 02 eb bf 8b d4 f5 43 19 14 f9 bf
       -0.8440866314400123 -1.567406907529661
000080 07 0e 7e 90 01 84 fa bf e0 09 82 dc 5a f3 d6 bf
       -1.657228054450458 -0.35860320600491313
000090 75 60 a6 a5 4f a0 f5 3f df 46 0b 5f ae ba c8 bf
       1.3516384573649962 -0.19319705620596658
0000a0 73 da fa 2b e5 bf ed 3f 76 2e 2a 17 40 27 bd 3f
       0.929674707315668 0.11388016286417177
0000b0 46 ac 9b b5 27 a3 fa bf bc f5 a3 f0 09 59 d8 bf
       -1.6648327917162233 -0.38043449878736246
0000c0 1f c4 27 87 d2 ae f5 3f c6 a9 73 34 cf 67 d3 bf
       1.3551812438493085 -0.3032110225891781
0000d0 2e de 59 4f ee 1b bf bf 87 a0 97 1e f6 26 f8 3f
       -0.12151994168549926 1.509512061597009
0000e0 4b 53 f0 da cf 5b ee 3f f7 73 6d 7a bc a7 08 40
       0.9487075115344877 3.0819024624493028
0000f0 7b 51 fd 79 64 c7 9e 3f f4 f3 e9 92 fe 9b f8 3f
       0.03005749697270364 1.5380845774482141
000100 5f c5 e4 ed 1c 73 f1 bf 05 a4 39 f8 32 0e f3 bf
       -1.090603760978716 -1.190966577176597
000110 8c a3 40 94 30 d9 c9 3f 16 cc 67 9e 2c 2d 01 c0
       0.20194060553447135 -2.1470577598024745
000120 9b f0 3d ad 5d c0 e6 3f 5f 81 c5 f3 68 c8 a1 3f
       0.7109821685439955 0.03473213172651656
000130 4c be ad 55 76 5e 0d 40 bd 93 0d ba 78 17 e6 3f
       3.6711241429946195 0.6903651841972686
000140 6e 2c 0d 11 ef 6c 9a 3f 54 5f b7 0f 98 85 a7 bf
       0.025806174674738384 -0.04594111625527711
000150 ea cc 97 17 a1 76 d3 bf 89 a8 b4 3d 80 2e da bf
       -0.30411555580140137 -0.40908819223353327
000160 dc 08 24 8e 4f a6 f2 3f fe 9c fc 59 2b 6b f5 bf
       1.165603213536591 -1.3386643900974486
000170 6e 57 be 99 be 37 e4 3f c3 bd 6f 6a 2f ef db 3f
       0.6318047526171833 0.436473707143673
000180 04 ed 21 30 48 fa 02 c0 1e 9f cf 4e 47 7e a4 3f
       -2.372208000216803 0.04002592885063748
000190 ba 56 1a 63 99 39 e7 3f 74 14 b7 b1 54 07 fb 3f
       0.7257811484912147 1.689289755058124
0001a0 a8 7c 83 4e 1c 62 ea 3f a8 54 fd a2 09 70 eb 3f
       0.8244763883084447 0.8574264701261614
0001b0 11 db 23 ea f4 16 ec 3f 4c f3 4f 98 08 20 fa 3f
       0.8778023312614512 1.6328206968020877
0001c0 4d 24 71 33 8a 41 d6 bf 15 dd c9 2b 68 dd d2 3f
       -0.3477502348292248 0.2947636058447228
0001d0 79 67 f9 5c 5a 23 b5 bf ad 04 0b 54 dc 08 f9 bf
       -0.08257069368246829 -1.5646632464343313
0001e0 1f 8f 96 50 b4 9b e9 3f c2 b0 d6 36 01 e3 d9 bf
       0.8002568792330499 -0.4044802699597875
0001f0 d9 18 70 5a f7 d8 08 40 0b ec 87 50 d3 c3 f7 3f
       3.1059405389270123 1.4853089471569116
000200 6c cf 12 19 b4 ce fa bf 9f 3f 5e 95 fc 2f 19 40
       -1.6754647235329356 6.296861966969941
000210 50 29 49 a1 37 a6 ef 3f 7a a0 12 34 50 af c4 bf
       0.9890401983368893 -0.16160013716330807
000220 05 eb 79 ab 9c cd ec bf d4 86 67 bd 29 67 e5 bf
       -0.9000991200585707 -0.6688431453041752
000230 e3 fc b3 ba 25 9a 01 40 68 2f bf d4 ef 81 d8 3f
       2.2002672754457406 0.3829307153325687
000240 43 7c ea 71 a2 a1 11 40 55 9c 85 7d 1d de a8 bf
       4.407846240937093 -0.04856960446596107
000250 30 18 2e e3 e3 2b fa 3f b8 a0 d1 69 c6 53 0f c0
       1.635715377256485 -3.9159057871912317
000260 70 5e 14 f0 14 b2 dd 3f f1 6b 11 46 9a 08 e8 3f
       0.46399424977560155 0.7510501259342829
000270 f2 be 58 4d 56 28 c5 bf 7a ba 40 96 94 9e df 3f
       -0.1652934911412483 0.49405398057107386
000280 bf b0 20 c9 b4 9f b9 3f 6d 93 e9 11 29 c9 dd 3f
       0.1000931731256882 0.46540285825022104
000290 1b 6d e5 1d 46 47 e2 3f 81 71 eb 45 82 8f d3 3f
       0.5712004264745788 0.30563408687682886
0002a0 ac 41 ca 01 f1 b3 c5 3f 8a ab ef 17 75 b7 a0 3f
       0.1695538767567205 0.032649668857479844
0002b0 5b a6 7c a7 cd f6 99 3f 79 22 73 2a 77 1b 09 40
       0.02535554251440995 3.1384108845125493
0002c0 72 8b 39 b3 07 47 e1 bf a1 fb d8 ca 02 73 12 40
       -0.539920663879782 4.612315339559161
0002d0 e4 70 97 ec 06 1b de 3f 96 50 54 e3 11 7e fb 3f
       0.4703996000732913 1.7182787780812183
0002e0 f8 6c e6 26 dc 12 02 40 b3 85 04 20 f7 4e de 3f
       2.2592089690275508 0.47356966139531237
0002f0 28 96 50 a7 f6 6a b7 3f 38 b1 e6 03 95 7a 15 c0
       0.09147588333925027 -5.369709073024119
000300 9a 48 1b ef 19 36 8d 3f c1 a0 1b dc e4 a4 df bf
       0.014263346299604063 -0.49443933005251145
000310 37 e2 bc a3 4d 50 fd 3f 97 1a 47 60 22 32 ce 3f
       1.8321052928933008 0.2359049768549155
000320 98 09 be 6b 3b 95 b1 3f 7b db 62 05 78 d7 e2 bf
       0.0686833513300712 -0.588802347678992
000330 9f 9d c4 e6 18 4a ca 3f 01 95 ac f5 05 34 ad bf
       0.2053862692639372 -0.057037531127472015
000340 0f b9 5c e1 ae 7c 02 c0 f5 55 42 cd 70 60 99 3f
       -2.310880432741335 0.024781954315207206
000350 5e 73 b8 c6 25 01 f0 3f 45 eb 09 26 bb 89 f7 3f
       1.0002801668662964 1.47112574442754
000360 7e ca c2 f3 fb 4f fc 3f be 06 57 36 b5 8d ad bf
       1.7695273897085424 -0.0577217701752608
000370 b0 21 19 d7 e2 92 07 40 8e cd 4e cd e4 ec fc 3f
       2.9467217258972696 1.8078353900753856
000380 61 28 3f 90 24 cd 82 3f 65 3b d2 ef 2a 16 f6 3f
       0.00918034138875984 1.3804120414749488
000390 43 2e 81 6b ee 3a d9 bf fb 6e 22 d7 dd b0 b6 3f
       -0.39422188280579834 0.08863626959140085
0003a0 d4 b9 fe 62 04 70 f6 bf 05 28 d0 f5 88 c7 d0 bf
       -1.4023479334824644 -0.2621786499518069
0003b0 e1 6c 0e 43 49 7c 97 bf 11 1d cf 7f d2 52 f1 3f
       -0.022935051648897867 1.082720278982212
0003c0 bd a6 4a 47 2f fe f5 bf 54 d5 b5 3e f3 92 af bf
       -1.374556807024802 -0.06166801586634088
0003d0 5d 0f 7b f9 d9 a9 00 c0 25 0f 85 0b f6 42 da 3f
       -2.0829352846794067 0.4103369820115737
0003e0 25 97 28 fb fc df 94 bf 58 c0 4a ae 7a 35 bd 3f
       -0.020385697202207304 0.11409727816749304
0003f0 cc c3 25 37 4e 44 12 c0 e4 a4 02 17 d0 a9 8b bf
       -4.566704618148787 -0.013507486059398173
000400 16 49 82 d6 04 3a 13 c0 58 ed 79 5e e2 33 13 40
       -4.806659080221172 4.800668216888276
000410 4c e9 c9 bc d8 19 f1 3f fa e3 e3 6d b9 72 c4 3f
       1.0688102125701162 0.15975110879642768
000420 82 97 4a e5 96 9d fc 3f c3 24 ad 48 dc 24 c0 3f
       1.7884739834493932 0.12612489269876023
000430 62 b7 b3 1b be 11 e1 3f f0 d2 0b 2f 22 83 f0 3f
       0.5334158459715861 1.0320150220624633
000440 c4 7e c3 f5 95 00 ba 3f e2 42 4b b7 15 c0 07 40
       0.10157143831338106 2.9687914199679293
000450 f7 6b db 81 39 3d f8 bf 67 44 0c af a0 5b e1 bf
       -1.5149474213164902 -0.5424350184349692
000460 ab cc b9 30 17 d3 f8 3f 50 1d bc 04 05 01 b5 bf
       1.55153578790195 -0.0820468079146981
000470 ee 04 06 98 06 0d bd bf a8 5d 65 3c be 83 e3 bf
       -0.11348000728141347 -0.6098319224938011
000480 42 49 9a 2f 15 bf 09 40 7e 05 e4 5b fe 38 b4 3f
       3.2183021277388955 0.07899465316224583
000490 36 dd 11 ad 4e 67 01 40 83 6b d3 55 b7 3b f7 3f
       2.1754430314137165 1.4520791390011432
0004a0 d2 68 a9 29 8f 5c e8 bf 38 76 aa 4b 49 c3 fb bf
       -0.7612987340646902 -1.7351773219774156
0004b0 a8 70 31 00 cf cc c9 bf 1f a6 3b 2a 55 2b f7 3f
       -0.20156276235036796 1.448079266522093
0004c0 fc 47 fe 22 70 1a 20 c0 e8 d6 44 ff e4 13 d2 3f
       -8.051636785068688 0.28246426514247824
0004d0 12 e6 78 e3 a3 44 8f bf 99 c0 c1 50 77 25 d1 3f
       -0.015267639521982655 0.26791174780283594
0004e0 95 a0 83 72 07 36 b0 bf 84 58 1c a9 47 ad e9 bf
       -0.06332441850429611 -0.8024023344940052
0004f0 3a b3 64 bb c5 22 db bf ac a8 fb 6e 1a 61 e0 3f
       -0.4239973382962493 0.511853424800639
000500 8f 9b 6e 4d 48 4a 87 bf 3b 6c 19 e0 14 24 fb 3f
       -0.011372151244200683 1.696308970821305
000510 e0 52 e5 df 3a 06 e1 bf e6 cb 87 43 db 10 77 bf
       -0.5320104954685938 -0.0056313099853353196
000520 2f f4 e3 d0 a9 9f f6 3f 53 fa a6 9a 2a f6 02 40
       1.4139803085120197 2.3701984483916845
000530 ba 95 d1 17 90 60 c3 3f 6c 7b 18 c4 e3 fa 01 40
       0.15138436472913758 2.247504741665969
000540 74 9d b9 30 66 03 24 c0 81 ff 1d f7 6c 52 74 3f
       -10.006639025362098 0.0049614197213258
000550 0e 52 9a c5 4b 28 d5 3f 9f b4 ae 11 78 0d 14 40
       0.3305844716753946 5.013153339660817
000560 a2 5f a7 aa 33 52 b0 bf bd 42 73 c3 e5 d7 c0 3f
       -0.06375430027344334 0.13158866923779114
000570 69 e5 d9 34 c9 32 10 c0 3d b5 7e 29 9a 88 af bf
       -4.049595666693997 -0.06158906704454601
000580 6f 16 ea 94 d0 f9 8e 3f 16 f2 df ca 72 99 00 40
       0.015124921364314063 2.0749259805290974
000590 56 53 c7 4a 13 03 94 bf 56 88 e4 9e cc 8c fb 3f
       -0.019542981566547844 1.7218748289820005
