dev/Sidekick_QAE/qae_runs/mackey_glass_tau30_n200/6q_4l_2t_sidekick/L4/weights_s2_inst01_L4.npy (npy, 704 bytes, 1 tensors)

array f8 [4, 6, 3]
000000 57 0a e8 45 6a 9d d9 bf a7 d0 fd a2 b9 8e e3 bf
       -0.40023285700605044 -0.6111725028445293
000010 ee 66 29 0d b7 07 d5 3f a0 70 45 0e b2 a2 f4 bf
       0.3285958889515389 -1.2897205884428686
000020 52 c5 cb 2d ac ce f2 bf 41 c8 69 dd 7a 59 f0 3f
       -1.1754571713357405 1.0218456887200917
000030 0d 9c fc d0 46 1a f9 3f c0 f1 f7 42 56 5f f9 bf
       1.5689151919884836 -1.5857756248434356
000040 ff ef 07 95 b0 b3 f6 bf e4 90 27 4e 80 ed dd bf
       -1.4188695737384476 -0.467620922396476
000050 e1 ee 90 9b 1f 87 bc 3f a4 91 49 82 fa c2 dc 3f
       0.11143682048799121 0.4494005462968522
000060 eb 65 5b 6b 52 05 d8 bf bf f3 b7 7a b4 92 c5 bf
       -0.3753248260887562 -0.16853958122365317
000070 44 4d fb 47 71 42 f3 bf a3 d3 8d 25 96 12 f9 bf
       -1.2037213146002879 -1.5670377222970522
000080 bd 58 3d ec ac 17 f9 bf f0 9a 52 0a 62 5d 97 3f
       -1.5682801464186433 0.022817165260358985
000090 dc ad 91 8b 7b ae d8 3f 24 5c c3 ca 2c 4f 71 3f
       0.385649572656545 0.004225897759361028
0000a0 54 de 55 a8 14 40 d8 bf 62 c3 23 3f 53 a2 f5 bf
       -0.37891117514616224 -1.3521301714319738
0000b0 30 d9 c9 32 2e 49 7b bf e3 aa a1 37 54 ff ed bf
       -0.006661587202520899 -0.9374180876305583
0000c0 2e bc 96 7c 89 9f f1 bf 35 eb 26 d4 83 46 9b bf
       -1.1014494768858287 -0.026636180709583363
0000d0 fc 09 d0 55 89 44 f1 3f 37 1d 46 33 1f 15 b8 bf
       1.079232535558389 -0.09407229425243178
0000e0 70 ec ca 23 7b 0d 73 3f d7 01 22 13 3b ae fa 3f
       0.004651528372671895 1.6675368068100533
0000f0 00 a4 35 2f f8 cd f8 bf db 82 37 15 51 4d ec bf
       -1.5502855152246866 -0.8844380773917594
000100 4d d0 f8 e0 92 ea f8 3f c5 ab 74 27 0e dd f1 bf
       1.5572689807859377 -1.1164685765495375
000110 7c 73 75 bd f7 7b 80 bf 2a 3f db cb 88 74 dc bf
       -0.00804894968921998 -0.44461269290785543
000120 e6 7e 0f 37 04 9d d7 bf e8 ec 69 c8 50 ff b4 3f
       -0.368958524484681 0.08202080624498687
000130 43 3e 0a ff 65 ce d7 3f f5 c0 83 bf d1 a0 df bf
       0.37197255998851037 -0.4941906328449613
000140 9d 22 ad df 10 71 c1 bf 25 4e 86 2a 71 65 f8 bf
       -0.136262997834156 -1.524766126739345
000150 08 24 78 c8 26 b8 f4 bf 0b 24 da 88 a9 64 e0 3f
       -1.294958861430361 0.5122878716366598
000160 aa aa 76 53 02 de f3 3f 7b fa f2 47 d0 77 e1 bf
       1.2417014370245547 -0.5458756833321127
000170 81 6b 60 bf 73 0d f9 3f 78 cd 16 7e 51 9e e9 3f
       1.5657842136049285 0.8005759680440141
000180 ed d0 8d f8 92 22 83 3f 99 eb ec 7a d9 3d f9 3f
       0.009343288622155355 1.5775999833847207
000190 ed b5 3f 90 03 e7 e4 bf a9 3a ce 2c 7b d7 65 3f
       -0.6531999413834321 0.002666225982870547
0001a0 ed 94 69 b0 2a 2c f9 3f 30 7b 59 8c ad f0 a8 3f
       1.5732828990087981 0.048711226828109466
0001b0 ff 9c 70 59 65 03 ea 3f 2f 8c c0 63 43 5c d0 3f
       0.8129145380852661 0.25563130132121875
0001c0 4a 13 4f ab 99 c7 ce 3f 26 10 cc 45 45 88 ed bf
       0.24046631684009362 -0.9228845942711856
0001d0 ca 7c 1e b9 35 5d f9 bf ae bf 15 f4 e7 8d 88 bf
       -1.5852563124861256 -0.01198941434515163
0001e0 d5 ab 5d e9 e3 9c c2 3f 8b 88 63 52 1e f2 a5 3f
       0.14541291136569492 0.04286284213755306
0001f0 19 79 03 dc d6 20 d2 3f 91 40 13 41 0a 23 d5 3f
       0.283254351479529 0.3302636752605475
000200 e7 ac 9e 0f ef 8d 80 3f 21 43 a8 8b 59 62 b7 bf
       0.008083217300585989 -0.09134444865800308
000210 a6 b5 0e 91 c3 a0 f6 3f 26 bb c0 36 2d 5c c3 3f
       1.4142490068728448 0.15125050710181503
000220 71 4b db 43 dd 61 a5 bf e7 4c c2 da 96 c1 f8 3f
       -0.041762270482329174 1.547263006713189
000230 75 36 03 96 17 91 00 40 4c 4e e7 e5 62 8d d1 3f
       2.0708457679491468 0.2742545361663573
