dev/Sidekick_QAE/qae_runs/mackey_glass_tau30_n200/6q_4l_2t_sidekick/L4/weights_s1_inst06_L4.npy (npy, 704 bytes, 1 tensors)

array f8 [4, 6, 3]
000000 eb a6 68 9f f6 13 74 3f 6d 32 35 78 d9 36 f9 bf
       0.0049018510531284405 -1.5758909888856139
000010 7b e9 67 bb 48 4a 92 bf e6 cb 91 c8 41 23 f9 bf
       -0.01786149638972166 -1.571107657885244
000020 37 1a a1 09 19 2a f9 bf 53 5d ae b9 1d b5 c3 3f
       -1.5727777839798713 0.1539647251745274
000030 88 97 0b 8e f0 cc c0 bf 29 20 04 45 87 c0 c0 bf
       -0.13125426231198056 -0.13087550039222265
000040 95 23 b7 27 77 e3 f6 bf fa f4 8b 5b 3a fb c6 bf
       -1.430533557069997 -0.17954186887792628
000050 c3 05 16 4a 3a 4d fe bf 7d 89 4f 64 7c ee 83 bf
       -1.8938544172273033 -0.009732219516028756
000060 0c d4 c6 83 ec 84 b2 3f ed 8f f1 ec d1 4a d8 bf
       0.0723407575340646 -0.37956665171645804
000070 62 70 3a ae 8a b3 b1 bf fa 6f 7d 0e ef 4f 89 3f
       -0.06914583924884846 0.012359492902469061
000080 94 fa 9d 0a 3c df fa bf f1 ab f1 7c 88 db f9 bf
       -1.6795006193857818 -1.6160969620348136
000090 bb 50 7d 63 08 0f d7 bf bc 26 bf fb f9 c1 5d 3f
       -0.3602925273492123 0.0018162671321867848
0000a0 78 fd fe 3c 09 d7 d5 3f 81 7d 74 28 19 d1 ff bf
       0.341249761167965 -1.9885493831896783
0000b0 92 33 80 38 c4 dd 00 40 ab 54 fb bb be aa c1 bf
       2.108284417545698 -0.13802322558209332
0000c0 f5 56 d0 5d ce 67 f9 3f 4d dd 3f 7e 2d b7 e0 bf
       1.5878432907679187 -0.522360560017583
0000d0 33 4f 76 bc a8 d6 c7 bf 37 8d 60 2f e7 3b 86 bf
       -0.18623837663892004 -0.010856443532310507
0000e0 3c 98 99 b4 ee 29 f9 3f 65 1f 1c 97 e1 ea fb 3f
       1.572737412899655 1.7448440458992647
0000f0 2c 93 66 2d 64 a0 b2 bf 9a 56 6e a3 83 1a 91 bf
       -0.07275987728514782 -0.016702706193959395
000100 5c d1 83 c9 b9 6f c4 3f b5 da 39 c6 3e 3e fa bf
       0.15965959872813584 -1.6401965850069875
000110 c8 d4 75 9a b7 47 f5 3f 8c 36 b6 98 37 50 83 3f
       1.3300090821842776 0.009430345867055288
000120 be a8 33 f1 73 f6 e3 bf 7c cf fb cc 55 66 bd 3f
       -0.6238345824215441 0.11484276060565252
000130 e0 a7 f8 3e 95 1e f1 bf a4 a2 57 bf 93 d6 f9 3f
       -1.0699665508095606 1.6148869966802204
000140 c7 c2 32 f6 ef aa e1 3f e0 4c 8a 61 6d f3 f9 bf
       0.552116375785851 -1.6219304857411814
000150 7d d4 1e 51 92 fa d6 3f 44 ef 49 25 d9 aa 85 3f
       0.3590436737243364 0.010579773378814779
000160 bf 4f 2e 25 fb 97 d8 bf 9a 2d 51 48 f9 a7 99 bf
       -0.38427618628452004 -0.025054831541906
000170 5a 0f 87 3e 76 6e f9 3f 72 ba ae c5 93 a1 f0 bf
       1.5894682352527156 -1.039447567174332
000180 ef f4 8e 92 39 cf c8 bf 60 8b 0a 11 c4 23 f9 3f
       -0.1938240018479642 1.5712319055243924
000190 4a 2a cf 65 0d 67 c2 3f f1 32 a7 9b 54 3c 90 3f
       0.14376990767626047 0.015855142593681874
0001a0 6d 6e 30 ff ee 8d f0 bf c8 dc b8 59 7d 87 b1 3f
       -1.0346517532660997 0.0684736579940931
0001b0 11 27 ee b2 ce 92 ef bf f8 cd e1 71 c9 45 a5 bf
       -0.9866708273632147 -0.04154805674707157
0001c0 81 ce 09 cc 66 6a c8 3f b6 97 f1 b8 9e 76 c1 bf
       0.190747117641525 -0.1364324954076303
0001d0 8b 26 ec ef 80 d6 eb 3f 9e 8c c4 6e 02 c9 a9 3f
       0.8699345289216621 0.05036170580049169
0001e0 20 3d 95 01 f0 cc cf 3f 1c 1e f5 31 cb 64 c9 3f
       0.24844169690411722 0.19838848056154823
0001f0 75 6e 1d be ee a7 b6 3f ae 98 48 40 b0 30 c8 3f
       0.0884999479434841 0.18898585451933542
000200 88 29 f4 6c 01 a9 d3 3f d9 d5 4d 95 cb f2 b6 3f
       0.3071902812959242 0.08964226145857114
000210 8b ae ad 95 28 fc f8 3f a2 90 a5 c8 71 3e f5 3f
       1.5615621420683137 1.327745231415101
000220 35 76 f1 cd a2 14 c0 3f 92 f2 4b 46 b5 d8 84 3f
       0.12562975936718748 0.010178962905677911
000230 22 e0 83 87 26 38 05 40 04 3b b1 0f c1 1f 8e 3f
       2.65241723891451 0.014709003726378629
