jacobs_examples/qae_runs/mackey_glass_tau17_n200/6q_2l_4t/L1/weights_inst03_L1.npy (npy, 416 bytes, 1 tensors)

array f8 [2, 6, 3]
00000000: 6800 b4a6 6341 353f e467 c579 c998 e5bf
00000010: a680 034f c143 c63f 6b2b cc77 6e35 94bf
00000020: d771 a5ed 6b2e f0bf a99c 64c6 c9f8 cf3f
00000030: b081 d6ad d46f c13f 1938 e203 fb7b e8bf
00000040: 244c 02a9 e8b6 cd3f 47bd 07f7 0586 eabf
00000050: 54ff 5341 bc27 ddbf 23c0 2a98 e4fb d23f
00000060: f85f 9f01 35f5 e93f c6b9 ef33 609c d5bf
00000070: dfe0 9045 b2f2 c23f 714d 182f e32f 0040
00000080: 3ec6 bd62 7753 c83f fb94 939b 496e c13f
00000090: bc04 6a79 4501 c03f 057c 1a17 4b85 debf
000000a0: 84d5 99f4 a51f d33f 716f 8a62 e1c0 c13f
000000b0: 58b0 9e0e a2b6 e3bf a0b9 68e2 4bc1 d13f
000000c0: 2885 bc3c 7bb9 ca3f 1bb0 5c1f ec4d ec3f
000000d0: 865b c78a 35c8 cc3f 9e2a f6ae f34a 723f
000000e0: dc50 6344 35cf ef3f 0fce 8cf8 ea2b ce3f
000000f0: 027d 8523 2e32 b43f 03ed dc54 52f6 ef3f
00000100: f7d5 913f 66a4 d03f fe47 7e4d 2d9c a83f
00000110: 9fe3 6eb0 9aba ef3f fc0d fe87 bb39 c03f
0.0003243320740722367 -0.6749007585851783 0.17394272192087107 -0.01973507505594389 -1.0113333972031933 0.24977991282614667 0.1362253044908477 -0.7651343417981052
0.23214443447486233 -0.8288602661904542 -0.4555502546281691 0.29662432537134203 0.8111825019541348 -0.337669420928162 0.14803150555395114 2.0233825377742325
0.1900471908698353 0.13617820831783675 0.12503879955696628 -0.4768855786914517 0.29880665671165496 0.13869874297676746 -0.6160440717262743 0.27742287740957217
0.20878544297833312 0.8845120060482289 0.22485989834123304 0.0044660109409827824 0.9940439544393729 0.23571526657325179 0.07889068953726411 0.9988185555916121
0.2600341435239381 0.04806653567278828 0.9915288396797343 0.12676185741666746
