dev/Monolith_QAE/qae_runs/mackey_glass_tau30_n200/6q_4l_2t/L2/weights_inst05_L2.npy (npy, 704 bytes, 1 tensors)

array f8 [4, 6, 3]
000000 b6 13 b3 97 09 ca 04 40 0a 4b b6 21 59 9f f4 bf
       2.598651108887192 -1.288903361976454
000010 e2 52 3c 34 b6 33 f9 3f 03 4c 46 58 a4 a1 fd 3f
       1.5751249351935077 1.8519633720613917
000020 9a 1d 7b 5e 7e 2d f8 3f 0b c9 bc fe 99 2e f3 bf
       1.5111068430577235 -1.198877329891334
000030 09 3a cf a1 83 66 d5 bf 96 67 79 1b 5e b9 ff bf
       -0.33438196946818316 -1.9827557633602502
000040 55 c3 46 2d 87 d4 f6 3f fc 65 db 58 90 b0 e3 bf
       1.4268867272005157 -0.6153032050598877
000050 a5 d9 44 32 4c cb e0 3f 76 c6 a6 86 6a cd d9 3f
       0.5248166066947318 0.40316260480458455
000060 45 0f 78 e0 ee 1c f9 3f 85 6e d1 64 b9 6e 03 c0
       1.5695637481994293 -2.429064548150395
000070 21 04 12 fd e7 33 e3 bf 3a 27 cf 1c 3a 5f d5 3f
       -0.6000862067013523 0.33393719495198904
000080 d2 72 03 73 5c 46 f0 bf fc 17 1c 56 b5 a4 fb bf
       -1.0171780102456762 -1.7277119983350522
000090 4c 3c 9d fb a1 f2 f4 3f e1 fc d2 97 d0 78 fb bf
       1.3092365101508845 -1.7169958048469243
0000a0 c9 2f 51 3a 83 21 e6 3f c8 ac bd 51 e7 5c e8 3f
       0.691590894604354 0.7613407703878687
0000b0 b4 b2 3d 27 8f f7 f5 bf b1 19 c8 ed 25 4a e6 bf
       -1.3729392559863927 -0.6965512890026756
0000c0 14 34 5e 7c 40 92 b2 3f 65 09 ea 6e b0 e5 d4 bf
       0.07254412685706796 -0.32651911574807563
0000d0 48 b1 a1 a5 dc 3d 10 c0 cf d7 d6 b8 c3 b9 f8 3f
       -4.060412014001777 1.5453526706964913
0000e0 c7 d2 c1 66 26 ee 00 40 f9 f7 5d 76 27 04 a8 bf
       2.1162841823482696 -0.04690669364843809
0000f0 5e 23 6e 40 c8 34 ef 3f 3b f0 ed a8 42 26 b2 bf
       0.9751931436922907 -0.07089630722288202
000100 ae 3e e0 3e c5 96 ef bf 1a 93 97 28 6a 6c 00 c0
       -0.9871546009107612 -2.052936856389704
000110 24 f1 ca c8 4b 08 db 3f a9 40 b4 82 62 69 f7 3f
       0.4223813496462461 1.4632287126187669
000120 78 31 d0 b7 60 81 e2 3f 21 70 52 9d 4f cd e9 3f
       0.578293189058555 0.8063123772331019
000130 28 22 a1 13 3e 55 02 40 e7 c5 d2 55 cc ff 91 3f
       2.2916223081158655 0.017577355135193342
000140 a4 c2 66 1b 76 cf d4 bf 9f e9 e0 af ab 80 10 40
       -0.32516243625563335 4.125654934027266
000150 43 23 ef 98 75 20 b2 3f 8a b0 ce 9e ec e8 aa 3f
       0.07080779060119106 0.052558321366945895
000160 33 57 6e d8 c0 9e f3 bf c2 34 2d 03 5a cc a1 3f
       -1.2262581304871218 0.034762204063193206
000170 a4 bd 23 83 50 69 f9 3f d5 8e 5e 0b 3e 30 fb 3f
       1.5882115481034385 1.6992779201618096
000180 c4 61 17 d6 b2 c9 d1 3f 34 e9 fd f3 23 ba fa 3f
       0.2779357043014239 1.6704444437915074
000190 3f 49 9e fd d2 86 f8 3f b1 93 11 d6 9d 36 c0 3f
       1.532916060158257 0.1266667647606972
0001a0 ec fe 12 f9 46 be d9 bf 9f d7 d3 f5 29 00 03 c0
       -0.40223860095646446 -2.375080032851613
0001b0 7f 7f be e3 1c ce e5 3f ca 80 0c 9e 5a 3f 98 bf
       0.6814102600219342 -0.023679176231895117
0001c0 0b b4 f2 d3 be 53 f4 bf bc 4a 02 c4 d9 ad fb bf
       -1.270445659563168 -1.7299440056419106
0001d0 7f d5 29 db 8d eb b0 bf 6b f2 a3 a8 b1 a2 f8 bf
       -0.06609427071255956 -1.539720209838516
0001e0 1d f9 d8 85 e1 b6 02 40 2f 6e 39 61 5f 73 c1 bf
       2.3392973381843505 -0.1363333916404925
0001f0 f7 30 7d fb d4 04 07 40 36 9e 89 10 5c e4 c0 bf
       2.8773593566494315 -0.13196898276804497
000200 99 34 a7 ef 5a d0 f7 3f 57 90 90 e2 87 19 bf 3f
       1.4883679734660176 0.12148331910481268
000210 dd 8c 29 ef e9 d8 e6 3f 9c e1 18 96 8e 0f a5 3f
       0.7139787360323698 0.041134315321360776
000220 6c c2 7b 7d 6e 46 e9 3f df f0 fe fd ec 9e e5 3f
       0.7898476076935146 0.6756501160484979
000230 ed 12 07 86 3d b7 80 bf f6 37 49 0d 3a 6e be 3f
       -0.008162003185938594 0.11886942695966227
