dev/Monolith_QAE/qae_runs/mackey_glass_tau30_n200/6q_4l_2t/L2/weights_inst02_L2.npy (npy, 704 bytes, 1 tensors)

array f8 [4, 6, 3]
2.7361951375687026 -0.5706879948113209 0.011245167442055367 0.5404481494299943 -0.6667326249191743 1.9530525023185645 -0.2602952642917402 -1.2158645423828962
1.0575893190553167 -0.22064403252143255 -2.4007233779791384 1.3800465694849182 -1.480298579426702 -1.7199881244697486 0.6853775939909529 -0.1486203940874307
-1.0630675406389742 1.4467404310696574 1.4538482564881827 -0.10017059256130334 0.5274178959021032 2.0859343483977346 0.7401194865524413 -1.1672661345080126
2.942856311045253 -0.20365135707702356 -2.2022692293036874 -0.028371933325036024 1.5779120434256035 -0.5282170703042233 1.4852135509018538 0.21723571725355767
-0.16038360955085063 1.2965821786593665 -0.39914060723012423 -1.9538627717624202 0.12846756105588694 1.792283558721082 1.3345911793720822 0.1907287539524386
0.11424371222675501 4.5471151891864405 0.07148720046836748 0.0005985567527497266 6.458015969071932 0.009491389430310627 1.677128428187709 1.6073795847348695
0.4352591072232616 1.456777972762629 1.5390595342226914 0.12221494045624043 -0.02576112417582213 -7.376138822714346 0.2722728363486851 -0.021944045788642307
0.22736289208122673 -1.7737917651694481 0.03946599872814156 -1.1858274749981996 1.6613046557161946 -0.010052904943553409 1.4275880722602214 0.06113033381754318
1.631258245329318 0.6251038887338617 0.45499888999887916 0.005585661282287695 0.3541651591529092 1.5727196109804236 0.031705509329285814 1.7096013257452867
00000000: 86a7 ba46 bae3 0540 f1e6 3d78 1343 e2bf
00000010: b19f 36d3 b407 873f 9989 dfea 594b e13f
00000020: e487 66a8 df55 e5bf 6644 0dfb b33f ff3f
00000030: e8f2 db77 ada8 d0bf a268 de60 2e74 f3bf
00000040: 5d10 1fc7 e2eb f03f ba59 de4b 103e ccbf
00000050: eb4d 5975 ae34 03c0 c150 2eb6 ab14 f63f
00000060: 423f 2f90 4daf f7bf f6b1 8144 1285 fbbf
00000070: 1d46 f3fd 9cee e53f 09e4 0f3a fe05 c3bf
00000080: 9abc 071c 5302 f1bf 04ec 534b d925 f73f
00000090: f169 af63 f642 f73f 785d 12ab c7a4 b9bf
000000a0: 7630 c77e 9be0 e03f 4ec5 ff58 feaf 0040
000000b0: 6300 bc0f 0faf e73f 450b 1741 1fad f2bf
000000c0: ed21 e63f f88a 0740 5946 3767 3f11 cabf
000000d0: 8ec5 6654 3f9e 01c0 3373 0537 880d 9dbf
000000e0: d6a3 e7b2 203f f93f 86a8 447c 27e7 e0bf
000000f0: 2031 cb48 6fc3 f73f e645 9046 61ce cb3f
00000100: 50ec ea3a 7387 c4bf cdb1 5ef4 ccbe f43f
00000110: 14c6 a30b 858b d9bf d076 199c 0543 ffbf
00000120: 477c aa02 a071 c03f 43d9 5d86 31ad fc3f
00000130: 3cee ce47 7c5a f53f 8cf7 50c0 cc69 c83f
00000140: c19c c96f 133f bd3f 6ecd d2f6 3e30 1240
00000150: bc1f 1834 fc4c b23f 1a1e c4d6 0e9d 433f
00000160: bad6 6023 02d5 1940 9a03 93b9 3870 833f
00000170: 2821 649e 84d5 fa3f f51b cba7 d3b7 f93f
00000180: 1fd8 b303 49db db3f 5bc7 686b f64e f73f
00000190: d255 e1e3 fc9f f83f 7c96 5774 7a49 bf3f
000001a0: 6897 5fc7 1f61 9abf 9841 1989 2a81 1dc0
000001b0: 993b ed0b eb6c d13f a63e 04fc 7f78 96bf
000001c0: 580b e82c 3a1a cd3f fd11 5579 7361 fcbf
000001d0: dac4 ae2b e334 a43f 640c fd3a 26f9 f2bf
000001e0: c4e5 cf30 b494 fa3f 13e9 b20f 9e96 84bf
000001f0: 0247 2897 66d7 f63f 306f 14a1 794c af3f
00000200: f650 f03e a219 fa3f 07dc d6de d900 e43f
00000210: 36bc 10aa b31e dd3f ac18 8b88 fde0 763f
00000220: b970 fc57 a4aa d63f 2b05 ef09 dc29 f93f
00000230: 6c38 585b b43b a03f 5363 74eb 865a fb3f
