dev/Stacked_QAE/qae_runs/mackey_glass_tau30_n200/6q_2l_4t_stacked/L4/weights_s1_inst05_L4.npy (npy, 704 bytes, 1 tensors)

array f8 [4, 6, 3]
0.97913425873466 -0.029270608751340712 0.589993418284014 -1.5678409232373893 1.5879473894855358 0.04962257220347886 -0.00012440901146910778 1.3139988625543255
-1.5730728500337063 0.0003172135256318219 1.171972491924696 0.0002305470488596765 -6.810608669212069e-05 1.1490107731437245 1.5709777418041015 -0.0021517255670514624
1.3666521535949396 -0.00027593576645629074 1.6077950246961852 0.9249611601346726 -1.3706665382830299 1.1139540355955526 -0.3689047974034451 -0.34699557310682455
1.467231891630178 -0.15681819130162816 0.07199791093204314 -1.3341925543855677 -0.06388201527868702 -0.056002167365634556 -1.5000849791062867 -0.15687258042484195
1.4906655391824999 0.3817173603693092 -0.1596455117957214 -0.2890298453940911 0.1631584927447554 0.9743307492945664 -0.09063972811900933 -0.6342974937153467
1.5776003652836053 -0.004756067353384368 0.7702751961622669 0.0023670710388587137 0.8038530963543045 0.007277242258185082 0.018770886505360067 -0.03791130798523323
-1.6510244340832878 -1.0785447302741784 -0.004745277784881121 0.4620700130808023 0.003017092286712574 0.42086481374450746 0.04436142196781594 -0.019565673147305507
0.2541129967869308 0.01939309547151293 1.0782278803631626 0.23234636190663902 0.5799029446930194 1.5762437368047335 0.009975660448885875 0.0915420827380912
-0.9741115929724345 0.28324835734260423 0.09172744521965491 -1.5054308728568615 0.04632959943286964 -1.1815497094631113 0.01658025276136953 0.24957794891022103
00000000: fb12 755e 1155 ef3f 67b9 484d 1df9 9dbf
00000010: a552 8ce0 39e1 e23f 1929 2a5d e015 f9bf
00000020: 43be 9985 3b68 f93f 1ec2 8339 2168 a93f
00000030: c7b9 6b45 794e 20bf b46e daab 2306 f53f
00000040: acec d16f 4e2b f9bf ac85 ebb7 f5c9 343f
00000050: 150d 4a3a 66c0 f23f d0f9 f011 e037 2e3f
00000060: 0913 f6a8 85da 11bf ab76 d61e 5962 f23f
00000070: 47ae 7c8e b922 f93f 1231 18de 7ea0 61bf
00000080: f82b 0ba6 cedd f53f e4eb bc17 6f15 32bf
00000090: b5dd 9b46 87b9 f93f 0a28 9b25 4899 ed3f
000000a0: b55a 3a09 40ee f5bf f714 8277 c1d2 f13f
000000b0: ffdb 0bde 229c d7bf 0b70 96eb 2c35 d6bf
000000c0: 8232 e325 c879 f73f 7e78 8755 9e12 c4bf
000000d0: ba5c d580 746e b23f 8571 ba4a da58 f5bf
000000e0: 33ae 6c5e 925a b0bf 7e58 aeea 50ac acbf
000000f0: afb7 671b 5900 f8bf 732b 4895 6614 c4bf
00000100: 3a02 c11b c4d9 f73f 1981 c6a6 0e6e d83f
00000110: b8d2 0e9e 436f c4bf 9346 6209 777f d2bf
00000120: e2a1 33a3 60e2 c43f 83a2 f6ad b72d ef3f
00000130: 584e fd4b 2a34 b7bf 5626 ee41 2a4c e4bf
00000140: d3cf 70e1 d93d f93f d282 d81b 197b 73bf
00000150: 42fb 0d2b 18a6 e83f 31e7 5f96 1b64 633f
00000160: 9229 f420 2ab9 e93f 2a47 10d8 bdce 7d3f
00000170: 5e3a a1de ac38 933f 0fec e367 1c69 a3bf
00000180: d78d d498 986a fabf d2cf 7c1e b841 f1bf
00000190: 1c10 58ce c86f 73bf d63c a91a 8e92 dd3f
000001a0: 4b0a 6a16 4db7 683f 7477 c4f8 72ef da3f
000001b0: 2695 1c51 8ab6 a63f 80e8 2a19 0609 94bf
000001c0: 160f ac28 6343 d03f 85fe 459b c8db 933f
000001d0: 13b9 bce0 6b40 f13f 6fe6 dd8c 86bd cd3f
000001e0: 8ff0 c99e 908e e23f 5c9e 415a 4b38 f93f
000001f0: 835c 127b 1e6e 843f 2a5d 914b 4d6f b73f
00000200: 0113 4f13 ec2b efbf 46a9 dbb7 bd20 d23f
00000210: 5732 5d29 737b b73f 7af1 d4ae 3e16 f8bf
00000220: 024a cd64 83b8 a73f bae0 0bab a0e7 f2bf
00000230: 1d5d 7aed 69fa 903f e1a2 2f94 2bf2 cf3f
