dev/Sidekick_QAE/qae_runs/mackey_glass_tau30_n200/6q_2l_4t_sidekick/L2/weights_s1_inst03_L2.npy (npy, 416 bytes, 1 tensors)

array f8 [2, 6, 3]
0	0x3ef17db7b223a07a	1.668079779274009e-05
1	0x3ff63d14e20a44cf	1.389912493676366
2	0x3f750b4a682150ca	0.00513772072925551
3	0xbef81c6ff429a81c	-2.2994120863741125e-05
4	0x3ff3d4a124dfaca6	1.2394114914302832
5	0x3ff9155396c8704f	1.5677066698035735
6	0xbf048cd596184ea3	-3.919627011952683e-05
7	0x3ff2aa9d6141cfc7	1.16665399542852
8	0xbff8fd3b1d4bbf4f	-1.561823954045355
9	0x3ee620d822b2205e	1.0551594718202932e-05
10	0x3ff1d40b905ee88e	1.1142688407403827
11	0x3ff91a48bccf31ab	1.568917024170427
12	0x3f18f74bfa9b6088	9.523774374587031e-05
13	0xc00080412a44784e	-2.0626242925782554
14	0x3efce38f531af780	2.7550607404995108e-05
15	0xbee2e02566181d5b	-9.000573473207337e-06
16	0xc0002471e1b20e34	-2.0177953369582387
17	0x3fb5e72deeb2dbdc	0.08555876805881674
18	0xbff92b984a986482	-1.5731432832601802
19	0x3fcab51f6f613ecd	0.20865242899389216
20	0x3fc24e804f1fb8bc	0.14302066672775549
21	0x3f788547a116fb50	0.005986480523857932
22	0xbfc4a9c954b52f34	-0.16143147121544532
23	0x3fbb4c2cb6c45339	0.10663108312685389
24	0xbf7ddefc3467b296	-0.007292733358991518
25	0x3fc33b0495bc126c	0.15023858367216592
26	0x3fc410b7f928b6a8	0.15676021257370576
27	0x3ff91b73cc4f6413	1.5692022305358975
28	0x3fc9f3093933dc52	0.20272937100500826
29	0x3fd1fa3d49221ba6	0.28089840070645733
30	0xbfb5e61ad3f9145c	-0.08554237055894148
31	0xbfcd76b87d95c5b8	-0.23018556720812255
32	0x3fc6f906df954223	0.17947469632282873
33	0x3ff7e185ec504948	1.4925593596459112
34	0x3fa6bdd069df18fa	0.04441691677452471
35	0x3fd10154d1d99bb5	0.26570625775496676
