dev/Monolith_QAE/qae_runs/mackey_glass_tau30_n200/4q_3l_1t/L3/weights_inst01_L3.npy (npy, 704 bytes, 1 tensors)

array f8 [6, 4, 3]
00000000: b9a1 453e 1812 e2bf 2765 5f1d 697f fa3f
00000010: bba1 c53e 0bdc f83f 6041 2f28 23fb 0240
00000020: 92cb e45d 15ef c7bf d637 a5fe 32d1 e83f
00000030: 58aa 1c12 12fe fc3f 0b14 e709 20eb c33f
00000040: ec2f 0c26 4f2d f63f 5053 c9e8 e52f cd3f
00000050: c6a7 0fa5 f81b f7bf 10c7 fa09 6ca6 fa3f
00000060: e1ba 38a8 5ce8 883f c214 3010 df40 a0bf
00000070: 4e74 0575 f588 c8bf 6c9d 5c24 6621 3e3f
00000080: ae86 489c 08c3 fc3f 99a6 e54b d716 d0bf
00000090: 7ea6 5eb5 87b8 f6bf 6508 07a4 d5c8 d9bf
000000a0: 33f2 4e3c c356 d6bf d729 5583 21fb d73f
000000b0: c4d3 c483 1428 c33f ec58 ef6b 3579 e03f
000000c0: f3a1 efb3 d998 dcbf 77bf 791e ac27 c43f
000000d0: 037f eb52 4e5c e03f 97ec a95a eef0 e53f
000000e0: fe37 cea6 397c e73f 5bc2 79b6 280a a23f
000000f0: eeb5 885d a3ca cbbf 3fc1 c58b 2516 f2bf
00000100: 117d d77f e4c8 d13f c54e d021 34c1 d83f
00000110: 1606 6dad c1a2 ea3f ad76 e7b9 6fe9 e33f
00000120: fa03 a783 61a5 d03f 5cf9 3783 93f0 81bf
00000130: aebf de2e cc13 0d40 a836 45b2 76e4 d63f
00000140: 1ecd d427 bed8 edbf a91e 0d02 82d9 07c0
00000150: bcb3 dfe0 68c2 d33f 2fa2 7095 512e f23f
00000160: 2b8d e951 2721 cebf 2967 39cc f5dd c73f
00000170: 9f05 0259 da31 c93f a3c7 893f 4743 02c0
00000180: a6dc 9697 adf5 f83f f3c5 8692 ddf2 c33f
00000190: 400f ffd5 ee95 f73f 11f6 8269 6c0c b93f
000001a0: a3a7 329b 7875 ecbf 216c 5c36 c6d2 e1bf
000001b0: 836c d743 ebbf 0240 8679 8544 d339 df3f
000001c0: 3282 ee29 7f8c eb3f e809 e3f9 ad3e fe3f
000001d0: f08c ddab 84e3 c93f 64f4 184d c780 d13f
000001e0: ced0 64af 5264 e73f db62 3db6 e849 c6bf
000001f0: 5ba5 b0cb dba4 c63f 2f31 2250 a45a cbbf
00000200: b00f 9e91 99d6 e0bf 92b2 fdfa dd6f 91bf
00000210: 5095 6d10 3f0a f93f 16d5 64fa 7764 ea3f
00000220: 43c2 b8d0 6e4e e03f 53f5 b4b5 defb f63f
00000230: b0d2 53c2 f5cc db3f 0b3e 46ef 1515 b3bf
-0.5647088257074336 1.656106104599823 1.5537216617613996 2.3726256503506846 -0.18698374828963132 0.775537011484398 1.8120289523600572 0.15561295016792118
1.3860618101343745 0.22802423349880963 -1.4443289230061835 1.6656303777530788 0.012161945232120388 -0.03174492905240235 -0.1916796513932319 0.0004597544069490842
1.7976156334702114 -0.2513941041166646 -1.4200512966876029 -0.402882967169836 -0.3490455712269835 0.3747028143449404 0.14966064867044626 0.5147959812263969
-0.44682924816018427 0.1574607037359745 0.511267816498702 0.6856605311180769 0.733914209167551 0.035233757281166254 -0.21712152545062174 -1.1304069003927706
0.2778865097479449 0.3867922144138272 0.8323677432273964 0.6222456580105323 0.2600940499942791 -0.008759643976188052 3.634666792080643 0.3576943150445495
-0.9327078607515522 -2.9812050018552623 0.30874082527480673 1.136308273076917 -0.23538676738380934 0.18646118614088295 0.19683389040077956 -2.282850738899428
1.559980003495903 0.15584916739093976 1.4741047248107435 0.09784581733671184 -0.8893397361000449 -0.5569792806376236 2.343710451137271 0.48790437404195364
0.8609004801729212 1.8903026353078705 0.2022558058916739 0.27348501709986395 0.7309964585934041 -0.17413052462031584 0.17690608449747 -0.21370366966983442
-0.5261962741937989 -0.017028301662707586 1.5650015489312246 0.8247642412667655 0.5095743252368908 1.436491689484076 0.43438476540840565 -0.07454049197826167
