dev/Stacked_QAE/qae_runs/mackey_glass_tau17_n200/4q_2l_2t_stacked/L5/weights_s2_inst02_L5.npy (npy, 608 bytes, 1 tensors)

array f8 [5, 4, 3]
00000000: 38e6 2143 ae60 f5bf f254 9258 ca43 f03f
00000010: 2f05 5f15 d4e9 0040 1e3c a928 2d56 e43f
00000020: 01ac 5745 6e4b f03f d67f ccc1 3a88 b43f
00000030: 4d89 b87e c45c ed3f 66d9 9983 c1d5 eb3f
00000040: 64c1 0838 c6a8 f0bf 03c2 1d9a 0378 df3f
00000050: 6bbe b9b3 4f02 dc3f 90dd 636e 9863 f1bf
00000060: d2e5 bc96 5d78 ffbf 2b4a 6e99 265c e53f
00000070: c3cf 6062 d3c8 0040 1794 efa3 cd00 02c0
00000080: 0262 5c83 3121 d2bf ec13 36d7 6f3c 0140
00000090: e509 2f9c c247 e03f 5b6c 9e12 8cb0 b0bf
000000a0: 5380 0349 bf43 e3bf 235d 85fd b278 f63f
000000b0: 310e 2188 1811 e53f 16f1 1645 940f e23f
000000c0: 4904 070f 1910 e2bf c148 b0d8 1bc6 e63f
000000d0: e0f3 dc89 dbee dbbf db7e 1352 8ac6 d23f
000000e0: e26f 4b64 388a cebf ae2d 5aa3 7eb7 e0bf
000000f0: a14a a163 8c44 d53f 10b2 990a 5a3d ebbf
00000100: 02c4 79e4 2be6 c9bf f949 5b97 980a d1bf
00000110: 6210 27b7 bd98 d63f a7cc 0c4d 163f c5bf
00000120: 687c e3a6 b5d0 0740 4aac 98ca 9b76 c0bf
00000130: ce2a 7a8a cead e6bf 3885 4fd8 5417 eb3f
00000140: 7fd7 49b8 1917 0040 a247 a148 2597 e83f
00000150: 6652 e777 1660 f5bf 62e5 32c5 d63f c73f
00000160: b394 3915 55f0 f83f fc84 db3e bca5 a53f
00000170: cfdd 1479 0926 f53f 8ddf fe18 5e9b f63f
00000180: f936 080a 4e1f dabf f276 24c0 787a c7bf
00000190: 5b6a b95e d603 d83f 8e45 97f1 4b44 c13f
000001a0: 5d6e b682 cb7a fc3f 0bf1 98bc 3575 ccbf
000001b0: b4d6 f2e5 2169 0240 42bc aef7 ec0b d1bf
000001c0: 6e99 c628 5abc d03f 10dc f885 37b6 03c0
000001d0: ef51 ae08 164b f23f 2109 23c1 71ab df3f
-1.3361036894188043 1.0165503940418685 2.114174048387802 0.6355195802842706 1.0184157093706292 0.08020369750420228 0.9175741648689751 0.8698432512599481
-1.0412046612583135 0.49170007753767225 0.43764107276272196 -1.0868152916062606 -1.9668861282537944 0.6674988743491829 2.0980594335360094 -2.250392227887015
-0.2832759650059701 2.1545101941469422 0.5087597895110859 -0.06519389586030526 -0.6020199228332878 1.4044675734674648 0.6583368929645471 0.5644017552763525
-0.5644650739196858 0.71168320009226 -0.436453709251337 0.29336793914079146 -0.23859314820481275 -0.5223992529367274 0.33230886201378423 -0.8512392241514721
-0.20233677536046463 -0.2662717321483395 0.35307257543559534 -0.16598776590544626 2.976908973519631 -0.12861964599992098 -0.7087166504510038 0.8465980744187283
2.011279525521729 0.7684503954462694 -1.3359589275106827 0.1816357100376918 1.5586748913859025 0.04228008525184099 1.3217863778826204 1.4129315353766032
-0.4081606958360307 -0.18342503911929203 0.37523421526353723 0.13489674850874817 1.7799792390786913 -0.2223269625554923 2.3013341870053754 -0.2663528841757775
0.2614961050225223 -2.4639730898447922 1.143331560048974 0.49483913289090437
