dev/Stacked_QAE/qae_runs/mackey_glass_tau17_n200/4q_2l_2t_stacked/L3/weights_s1_inst04_L3.npy (npy, 416 bytes, 1 tensors)

array f8 [3, 4, 3]
0	0xbf7353d491d1ec7c	-0.004718618726765485
1	0x40048e7db9ecca00	2.5695757413279807
2	0xbf75a3621eaa6390	-0.005282767563266413
3	0xbff914b8a4782e57	-1.5675589012706916
4	0x3ff94d481bfa0085	1.5813675968966276
5	0xbff39b097c78b301	-1.2253508436362497
6	0x3fad9ac5f9877c04	0.0578214518643492
7	0xbfd47316bb73c1ee	-0.31952446275593516
8	0x3ff84fc0be617e6d	1.519470924067629
9	0xbf5526861b2d5b91	-0.001290923083350857
10	0x3fe5b5303592547c	0.6783677145309777
11	0x3f91ab9197a8e197	0.017256045228550922
12	0x3fd00f4e6cfbf24d	0.25093422549233396
13	0xbf5a7c064246c2cc	-0.001616483795356216
14	0xbfb3733779a6c751	-0.07597681732184226
15	0x4007e309bef3bfcf	2.9858584325920456
16	0x3ff3f8449efdb813	1.2481123171414807
17	0xbfd2c1586937a2a4	-0.29305086398248137
18	0x3fe9aab42e43b059	0.8020878699876547
19	0x3f9527ee668737a2	0.020660138137649782
20	0xbfda5ac28ef51190	-0.4117895504062057
21	0x3fcb4d296da61cc6	0.2132922921557336
22	0xbff92022687a6070	-1.5703453141377643
23	0x3fca1221ffe6d92a	0.20367836947634405
24	0xbfd07464b5bf835f	-0.257104089249017
25	0xbff81fdc89a91bdb	-1.5077786805502373
26	0x3fcac5c034a76344	0.20915987559308225
27	0x3fd08bbf0ac8781f	0.25852943470988693
28	0x3fc8bebfb0f1dafa	0.19332119121437313
29	0x3fb277232adb459c	0.07213039203931831
30	0xbf4f75ac756c2f26	-0.0009600727160843133
31	0xbff2796ceb25e541	-1.1546448884458445
32	0x3fc32dbb0707a6ee	0.14983308642631904
33	0x3fe47c25af70e13c	0.6401546885090634
34	0xbfb994003bd069a8	-0.09991456470780824
35	0x3fb9504c3ae7452c	0.09888149679251929
