dev/Sidekick_QAE/qae_runs/mackey_glass_tau30_n200/4q_3l_1t_sidekick/L5/weights_s1_inst04_L5.npy (npy, 608 bytes, 1 tensors)

array f8 [5, 4, 3]
-0.10400135920197877 1.6416071529523444 -0.006643733387677037 0.29460810305833063 0.04423319030718104 1.2587853873108774 0.3298867130398314 0.04649152779407864
-0.33694367478872556 -0.9013281494771846 -0.11329003865780707 -0.7838561980495103 0.47146507116122 0.7045201805604664 -2.1489060807482683 -0.7638971965804381
0.06590790031087321 -0.7691688386372556 -0.7178639474667164 -0.013129772926070142 -0.319496361951056 0.7412971403213815 0.004758387814243886 1.2306471234202108
-0.2742337217251804 -0.07710080350640747 1.3094686145044658 1.151829772492996 0.15340771930941915 0.01719178047465541 -1.538128361922483 -0.9628215234657225
0.45508163627963993 -1.5643059797863448 1.6160509671796133 -0.1546883564354966 1.6976050268003866 -0.455529971849162 1.3680469160501025 0.5250143241387067
0.15635929535260668 1.0393269720325433 -0.0007583572703956731 1.569381149666554 -0.06743196991301036 -0.9923258109387763 0.8263395638789421 0.8376507560246131
0.09018905085751966 0.2106920936709598 0.28987069688946193 -0.6062256594119042 0.9772503022371908 0.12335233598161999 0.25559227506926085 0.07391779075337662
0.030466002069286832 -0.3389879850315674 0.1078916295208394 0.02488331673275371
00000000: 8b15 8344 d59f babf b7f5 acdc 0544 fa3f
00000010: 3a83 f999 7536 7bbf 8a6a f1f1 dbda d23f
00000020: 99bf 8893 bba5 a63f 35ed 7225 fc23 f43f
00000030: 5a06 f928 dd1c d53f 3452 d5ce bccd a73f
00000040: d8f1 f333 7c90 d5bf a7ff 9e21 aed7 ecbf
00000050: 9073 ff72 9300 bdbf 2977 ec97 5915 e9bf
00000060: 0b00 76d5 7b2c de3f 8e22 dce7 6d8b e63f
00000070: 2fea d7ab f530 01c0 c735 9a88 d871 e8bf
00000080: 461b 6214 57df b03f fb93 e1f7 079d e8bf
00000090: b31a 2bd0 bdf8 e6bf 5c2e 924a c8e3 8abf
000000a0: 3454 71de a072 d4bf 988e c9c7 b4b8 e73f
000000b0: 13a9 b300 887d 733f ba19 c009 bbb0 f33f
000000c0: eb47 9198 0b8d d1bf e82a 8ed5 e0bc b3bf
000000d0: 38f6 a65c 95f3 f43f 24aa 360e e56d f23f
000000e0: cea6 b138 dda2 c33f 5e39 98db b89a 913f
000000f0: 261d 387c 2c9c f8bf 1272 6515 6fcf eebf
00000100: b832 35ba 0e20 dd3f d5e9 01b5 6507 f9bf
00000110: 2c4a 4b42 58db f93f 8831 fbfb d3cc c3bf
00000120: 3620 7ae3 6329 fb3f 2a28 dc2e 6727 ddbf
00000130: f642 bd29 85e3 f53f e96e 03d7 eacc e03f
00000140: c686 fbd5 9403 c43f 0cb0 ab51 15a1 f03f
00000150: 477d 67d6 8fd9 48bf 7d6d 8c68 2f1c f93f
00000160: 3f32 7bb9 3843 b1bf dcad 1e0f 22c1 efbf
00000170: dc07 48ab 5f71 ea3f 6c0d 53f5 08ce ea3f
00000180: 84ec e32f a116 b73f 62d8 eb61 f5f7 ca3f
00000190: bb5f cdd2 3d8d d23f fa71 a55a 3366 e3bf
000001a0: daac 036d a245 ef3f 801f edc8 0494 bf3f
000001b0: f217 a2b3 9f5b d03f d4d9 e0bd 46ec b23f
000001c0: 3c1d 1cca 7a32 9f3f 29a4 5ca9 fab1 d5bf
000001d0: ffdc 4d2c c99e bb3f e92e 551e 037b 993f
