dev/Stacked_QAE/qae_runs/mackey_glass_tau17_n200/4q_2l_2t_stacked/L4/weights_s1_inst05_L4.npy (npy, 512 bytes, 1 tensors)

array f8 [4, 4, 3]
00000000: 21a5 2e9c 421f f9bf f9e2 17dd 1f23 f93f
00000010: 585e 8615 190f cc3f 5883 d46c 18eb 96bf
00000020: de08 25af 7165 bebf c648 3ce5 10c6 f8bf
00000030: e6ba ef55 0fb0 de3f b069 24ec aaf5 9c3f
00000040: e94c 3bac c75f f13f b9b7 f8b2 ce6b b7bf
00000050: be83 2ddb 79f4 ae3f 718e 5906 834f b63f
00000060: e911 7896 4276 e33f b266 8dc6 b7bf e83f
00000070: a680 547e c57f e93f d2b2 52f7 5c9f d13f
00000080: d8a3 0ec0 56fe 373f 0e3c ea2b c59c d53f
00000090: a15c fe16 80e8 e13f d0b6 4330 28b2 bf3f
000000a0: 5b81 47fd 6b30 c03f f765 d79c 0e3b c13f
000000b0: e663 920f 6988 ba3f 59ba 2b3e 0bf5 a33f
000000c0: f2a6 3d36 0f48 c83f 74aa d2df 2a27 c13f
000000d0: 3bff a143 b70f e73f fa1f 70ad 86eb c6bf
000000e0: 33ba 6681 b6cf e63f f850 c04f 30a7 f8bf
000000f0: face 6d31 665a cfbf 015b 4b38 a668 f63f
00000100: 4e83 fbd7 c569 ef3f 0a81 3d22 2f0b aebf
00000110: 4949 ad69 5f6d b2bf ca03 f297 3111 fa3f
00000120: 1acd 6605 7efd 6c3f 5673 0b76 2d86 e83f
00000130: d6e0 8092 3768 b13f 8cd1 a091 caae f1bf
00000140: 0bdd 1f79 c7c2 babf cb6d 07be d234 d13f
00000150: c48f 3c97 0eae df3f 772b 9df2 a2d1 eb3f
00000160: be20 c58d bd97 b13f dee4 35a9 36fc aa3f
00000170: 519b 1fbe 6123 f93f f483 7958 049f ab3f
-1.570131883703944 1.5710753094155605 0.21921075392741574 -0.022381192820037782 -0.11873541379921757 -1.5483559565077925 0.4794958438132383 0.028280897772768376
1.085883782176831 -0.0914887606565732 0.06045895386228704 0.08715075402283802 0.6081860483978377 0.7734030607200195 0.7968471019157917 0.2753517546905587
0.00036611192632079797 0.3376934937340942 0.5596313904851692 0.12381220987637254 0.126477717086355 0.13461477907439676 0.10364395742580221 0.038978911723337624
0.18969907902219735 0.13400779656270212 0.7206684418633594 -0.17906268566753153 0.712855580078957 -1.5408175578386913 -0.24494626439592776 1.4005491446493468
0.9816617220313704 -0.05867907803508572 -0.07198139505388669 1.6291976867071178 0.003538843283615767 0.7663790994225603 0.06799647642845072 -1.1051736534692251
-0.10453459460392282 0.2688490730049266 0.49499859589763795 0.8693403948358157 0.06872162543470758 0.052705486445981484 1.5711381365487862 0.05394757823956545
