dev/Sidekick_QAE/qae_runs/mackey_glass_tau17_n200/6q_2l_4t_sidekick/L4/weights_s2_inst04_L4.npy (npy, 704 bytes, 1 tensors)

array f8 [4, 6, 3]
00000000: 4ebd 8314 790f f53f 8f09 4ea6 5480 edbf
00000010: 14ac df1c c92b f3bf eccf d7c5 dc48 f23f
00000020: 5720 4ae8 ad53 dabf b12d 1141 c45f f2bf
00000030: e8f2 3ded 00ab f33f 83f6 274c bdde ca3f
00000040: 7dff 42ec 5c6c f3bf aeae d8af 7f94 fdbf
00000050: d979 4413 7c96 b63f 9c8c f36b f52d f5bf
00000060: b165 91ce cbce c03f 0179 b3db ac43 d6bf
00000070: 623a f7b9 cfc7 bdbf 7075 2bfe c3b3 d3bf
00000080: 748b 1384 efa9 cfbf df15 446f 6c44 d33f
00000090: a1fb 22f4 d51e bb3f ed19 b78e 3291 863f
000000a0: 3731 a779 f780 bcbf 424a d92e ce72 b0bf
000000b0: 016e f240 bdee f8bf 1df9 5cba 1e46 09c0
000000c0: 1426 c25d 1041 f9bf 81af 63d9 3e33 ba3f
000000d0: 6d07 4ed3 44b6 f93f 8e81 a5bd 860a ad3f
000000e0: 3cb9 970b 8206 f93f d447 2ab7 55a6 07c0
000000f0: fd63 8b42 fef4 f93f 81d7 3086 f95a a0bf
00000100: bbfb 98d9 103b fabf c2d5 5eba a6c5 503f
00000110: 8e21 4a7a 1e17 f9bf 69e1 f1c5 fc8c ac3f
00000120: 03e1 47f5 aef4 c23f 46ca 90d0 f2fd fa3f
00000130: af3d 49c9 9bc6 b4bf 1ab0 2567 e039 f93f
00000140: f05f dd7d bb31 9f3f a64d 7842 277e f8bf
00000150: 5a02 53ca a662 f43f f854 05f3 dbf0 91bf
00000160: c839 7427 6a5d f4bf 35a7 803f 815a 0440
00000170: 1c3b c9e9 3e12 d03f 8d05 3812 4097 b23f
00000180: 73a4 64bc 78fd 90bf 3776 3abc 0d44 f93f
00000190: 406d 069b 3b2a e4bf 2830 eafd 859f 97bf
000001a0: 7bd2 b6ec fdd3 f83f 4cd1 e670 7fdf 8c3f
000001b0: 6055 97e2 c7f2 b6bf 3eed 5660 e97c 8abf
000001c0: 6a1c 9b24 e2d7 e63f 9b22 21d7 47e5 e4bf
000001d0: 1698 9260 a92b a6bf 9a4e 74b1 fae5 e63f
000001e0: 3910 8bad a048 a1bf 5b13 82c6 73c2 f83f
000001f0: f9c1 2b9f 9290 c13f c571 6f96 364a 05c0
00000200: 83c6 4a74 11fe d63f dac8 4ffc 90a6 cb3f
00000210: eb98 07c0 928b f1bf c293 e143 6131 e9bf
00000220: 8802 f30a 4326 e83f c959 2c9b 5afe a13f
00000230: e7f0 addd c580 f73f 3da3 e369 074a cebf
1.3162775803901527 -0.9219153640881802 -1.1981898429755846 1.142788670372279 -0.4113573807194419 -1.1483805219348648 1.2292489306702752 0.2099224683624251
-1.213955805680569 -1.848754584217129 0.08823371382138791 -1.3237203804826896 0.13131091677023002 -0.3478805680769171 -0.11633013048342769 -0.30784702130571073
-0.24737352322616923 0.3010512434560421 0.105939266303706 0.011019129734347788 -0.11134287567182787 -0.0642517914177825 -1.5582859551421964 -3.1592382964728487
-1.5783847486912963 0.10234444434507674 1.60699923077524 0.056720934534271725 1.5640888645971947 -2.956218176820565 1.6223127936739268 -0.031944081907950846
-1.6394203662782576 0.0010236862376421384 -1.5681443001686577 0.05576314846342962 0.14809214569664428 1.686999144276926 -0.08115552581988682 1.5766300229252068
0.03046315150945128 -1.5307991596681432 1.2740848449031064 -0.01752036734372539 -1.2728063145801674 2.54419183360451 0.2511136324946379 0.07262039608760613
-0.016591917513470066 1.5791146614714202 -0.6301553752740929 -0.02306947099945958 1.5517558333059742 0.014098163254722927 -0.08964204103479778 -0.012933562519597982
0.7138529505690603 -0.6529883577105297 -0.04330186179986144 0.7155736413864873 -0.033757229980921406 1.547473693296715 0.1372245099260139 -2.6612369301567207
0.35925709110879483 0.216020701598217 -1.0965754986914884 -0.7872778249553607 0.7546706403591807 0.03514369148449565 1.468938699660663 -0.2366341845547825
