dev/Sidekick_QAE/qae_runs/mackey_glass_tau17_n200/6q_2l_4t_sidekick/L4/weights_s2_inst01_L4.npy (npy, 704 bytes, 1 tensors)

array f8 [4, 6, 3]
0	0xbffa812ac54aec75	-1.6565349299187606
1	0xbffb66fd5789fed7	-1.712643949460405
2	0x3ff7c49c67625b1b	1.4855007208295266
3	0xbff893a0902909c9	-1.5360417968046127
4	0xbff3076e0d6eb122	-1.189313938589358
5	0x3ff5ab69295247de	1.3543483366124671
6	0x3fe781200b6daa1c	0.7345123503885733
7	0xbfdbcacc6d6a3f87	-0.4342528408533259
8	0xbfe4226eed44c65f	-0.6292032846597059
9	0xbfce5ec36d34531f	-0.23726694900747078
10	0xbfe0910dbdb368e5	-0.5177067475408675
11	0x3fd11ea160ad0238	0.2674945301151044
12	0xbff818535e226b72	-1.5059388806464225
13	0xbff147d3407a2a4f	-1.0800354498520794
14	0x3ff59e3fda39c602	1.3511351131859333
15	0xbff2b5780a0767ef	-1.169303931403643
16	0xbfdc7f2d6c5c1d38	-0.4452622945977569
17	0x3ff27753542d6d68	1.154132202928702
18	0x3fd1bb43071dbd54	0.2770545548909997
19	0xbf85eb45aa17081a	-0.010702652219041698
20	0xbfd335f56b978983	-0.3001683760359343
21	0x3ff8239d5dca3b8e	1.5086949981375457
22	0xbfee18f641a6a85c	-0.9405471117254467
23	0xbfe9223ecf9b6cba	-0.7854303412272181
24	0x3f96d55fbabc97de	0.022298331997397607
25	0xbfb410fe7720b2ec	-0.07838430794135903
26	0xbfbbb72ba8003fec	-0.10826371051393807
27	0xbfd4c5c53c1b112d	-0.324570950219157
28	0xbffa14bfcb2438da	-1.6300657210554648
29	0xbf94805311a59038	-0.020020769073554073
30	0xbff59eaf59c94a32	-1.3512414462353601
31	0x3fbb8d47a3901246	0.10762450927001863
32	0x3ff57ff11691c5c5	1.34373577896291
33	0xbff76fabee59f987	-1.464763575611501
34	0xbfa27e63de0a3289	-0.03612052998969257
35	0xbfc142d6c770e390	-0.13485226381615378
36	0xbfcd03184cfca19c	-0.2266569496071157
37	0x3f7b1ed1eaee9f59	0.0066211891088768455
38	0x3fcf6267ad836cdc	0.24519058201153754
39	0x3ff91c1753489fcc	1.5693581822651934
40	0x3ff2ab0dddb0ec06	1.1667612705048227
41	0xbff8de00418f755e	-1.5541994629814648
42	0x3fea0a52715833a2	0.8137600148926263
43	0xbf698b27c1bb7c24	-0.003118112230239516
44	0xbfea48686fb9008f	-0.8213388616641327
45	0xbff62fd2c0485eb9	-1.3866755972903049
46	0x3ff8374503c515ed	1.5134935519466766
47	0xbfe8fa345f51f2c9	-0.7805425512047687
48	0xbf95d1d0e78b3a81	-0.02130819714767052
49	0x3ff93a2d9f694ac2	1.5767036654475963
50	0x3fec4351a293e3d9	0.8832176375718702
51	0xbff7dd86922c7271	-1.4915834150225715
52	0xbfe21ca6cb4c4ec7	-0.5659975023904388
53	0x3fe5ffda87e38964	0.6874821333006307
54	0xbfe8952083f82341	-0.7682039811635165
55	0xbfed338640a7a11d	-0.9125396025456528
56	0x3ff86169e3ac202f	1.5237826245738793
57	0x3fe3a20fed078a1f	0.6135329846841308
58	0x3f7b118e20903791	0.006608538803460366
59	0x3fc0bdeb2925e7f8	0.13079585560973306
60	0x3fe91808a974a6a0	0.7841838178330427
61	0xbff8e7cbf46d5d36	-1.5565909908235205
62	0x3fbbfb1589727ffd	0.10929998975416307
63	0xbf88491410ee5319	-0.011858135954562908
64	0xbff9432c38573fb7	-1.578899593430817
65	0x3fd0b68f2027cf94	0.26114252224146495
66	0xbff0a13f66c89b86	-1.0393671050057676
67	0x3fb09217484bae39	0.06472917094259224
68	0x3ff28fc7a2872a58	1.1601024960279087
69	0xbff51a7c3cfce4d4	-1.3189661390627423
70	0x3ff9e19a01dd1d10	1.6175785134126421
71	0x3f91f3d61a12480c	0.01753172430159826
