dev/Sidekick_QAE/qae_runs/mackey_glass_tau30_n200/6q_2l_4t_sidekick/L4/weights_s2_inst02_L4.npy (npy, 704 bytes, 1 tensors)

array f8 [4, 6, 3]
0	0x3fef14e9f2c8b516	0.9713029615283257
1	0xbfe2c8e94087306c	-0.5870252857507814
2	0xbfede47f05d6f003	-0.934142600446194
3	0x3ff765403257448a	1.4622194258156775
4	0xbff4614d1fe49de0	-1.2737551923581734
5	0xbff3e6dbdeaf14f5	-1.2438620279875157
6	0x3fa49a6eb75e532b	0.04024072636017303
7	0xbfc0498240e1680e	-0.12724331062310096
8	0x3ff817e452678e2d	1.5058329790998741
9	0x3ff90eb480806e10	1.5660901088330128
10	0xbff8baa26dd2630f	-1.5455650606074334
11	0xbfb090e9e47563f1	-0.06471120669938536
12	0x3fd6930b3284cf30	0.35272483762240636
13	0xbfd0b633d9a401a5	-0.26112076047868477
14	0x3ff4f11a0fc25e0b	1.3088627448649983
15	0xbfa60f7125c3865b	-0.043086562976679864
16	0x3ff0fe656cbcf8d5	1.0621084449372138
17	0xbffd1c767404fa52	-1.8194489032754473
18	0x3ffa0e653ea837f5	1.628514523271858
19	0xbfdfe556f80b7f17	-0.49837278578887506
20	0xbfb6cbc2eec2e820	-0.08904665307173376
21	0xbfd1ddc14f04b471	-0.27915985790861614
22	0xbfdd9d389aa5a636	-0.4627210149979847
23	0x3fd15d966ac89a8b	0.2713371317681001
24	0xbfe40726bce9ed65	-0.6258729638788451
25	0x3fde32cbb2bea4f6	0.4718503232530361
26	0x3fef8008def4c1b4	0.9843792299853278
27	0xbff8efd98a2ef28b	-1.5585570714748964
28	0x3ff40012a76b798b	1.250017789825139
29	0x3ff99b5d775dddaf	1.6004309332619007
30	0xbff943ff98df2c73	-1.5791011783174127
31	0x3f99752bf1b9fa68	0.024861036900342276
32	0x40064bc93cda2ead	2.7870049242099726
33	0x3ff62daa0724330a	1.3861484793625913
34	0xbfba4b63371d0ee7	-0.10271282287163395
35	0xbfc689566d55ad6b	-0.176066211114953
36	0xbfdd3909135afce1	-0.45660616769960255
37	0xbfbc0f6c2cfe930e	-0.10961032961365566
38	0xbfe7fad5099fee17	-0.7493691623671478
39	0x3ff9ccf720325325	1.6125403649977639
40	0x400a84243891919e	3.314522211019905
41	0xbff858c0d90b1500	-1.5216682890180095
42	0x3fe67a1336c36ebb	0.7024017400358028
43	0xbf9038e8be2fb1fa	-0.015842091186572184
44	0xbfe60fd9f3ecb6ea	-0.6894349826959261
45	0xbff7ec0bc6790154	-1.4951284172858168
46	0x3fa040d1c1ef76f7	0.03174453251243208
47	0x3ff7d087e1e1e6ce	1.4884108375103327
48	0x3fc45b2e23141d5b	0.15903259957142776
49	0x3ff8eadb50dc07a7	1.5573380621503732
50	0x3ff18e252a1ae9f6	1.0972034115535485
51	0xbfe26d68b7bc228f	-0.5758555973598777
52	0x3fa56aab9c01320d	0.041829455178774656
53	0x3fcd49d970cc9ba3	0.2288162041452014
54	0x3ff762ad85f6f75e	1.4615912659641803
55	0x3ff903929b077d67	1.5633722358541833
56	0x3fd465551999b948	0.31868484020278176
57	0x3ff3c55cd2cd321c	1.235684226459063
58	0xbf613efb1c6af0d3	-0.002105226947007302
59	0x3fe8341b1d570538	0.7563605855031375
60	0x3fcfad902b6f797c	0.2474842273795267
61	0xbff928409d6f31d2	-1.5723272466449214
62	0x3fc88f7052d46093	0.1918774036828422
63	0x3ff453d2a98f3460	1.2704645751394068
64	0x3fb73694ca311a51	0.09067659317325051
65	0x3fb186d511c63351	0.06846362766209536
66	0xbfdf22ea396b23a8	-0.48650603873516696
67	0xbf7028e313bcdcd8	-0.00394524290077599
68	0x3fdbfdb7ea76dc14	0.43736074349311704
69	0xbff64774faa5d957	-1.392445544331698
70	0x3ff76ef950ccd924	1.4645932346589428
71	0x3fd9828409bbacb3	0.3985910506296008
