dev/Sidekick_QAE/qae_runs/mackey_glass_tau30_n200/6q_2l_4t_sidekick/L4/weights_s1_inst02_L4.npy (npy, 704 bytes, 1 tensors)

array f8 [4, 6, 3]
0	0x3fdf3f22eb61989d	0.4882285402912972
1	0xbfd4a3aeb46cbb95	-0.3224903833351445
2	0xbfddaf28ee872712	-0.4638159112333692
3	0x3ff88aeee74050b4	1.5339192422152736
4	0xbff73c9f86baaf49	-1.4523005736218286
5	0xbff5333883407f95	-1.3250050665883226
6	0x3ff2bdf3b821148b	1.1713750069186826
7	0xbfcfadc59674eefe	-0.2474905953075605
8	0x3fdb373f628d72e3	0.42524704574843336
9	0x3ff94003c231a3b1	1.5781285844516157
10	0xbff7fec8abc8bec3	-1.4997030935591489
11	0x3fa29397e9ca1e74	0.03628229836345734
12	0x3ffbb1b2225f6071	1.7308827727011045
13	0x3fa0baadfa66d9f7	0.03267425233518744
14	0xbfc2d30d72725d17	-0.14706581199855215
15	0xbf5d10684ffd5bd1	-0.0017739313770641538
16	0x3ff5a072a6f92306	1.3516718408956776
17	0xbf69386569bf1453	-0.0030786495899257998
18	0x3fb85052971a27be	0.09497562588708683
19	0x3f85b735ef51a581	0.010603352895673936
20	0xbfbf8cc57b9b9635	-0.12324175136344524
21	0x3fdb9a3c86af238f	0.4312888446116227
22	0x3fbd8c54bcebe60c	0.11542253124562069
23	0xbfe37eee696f1380	-0.6092445430045785
24	0xbffb053a1c16d037	-1.6887761208754577
25	0x3fdf4ce7bbc60bbf	0.48906892144458064
26	0x3ff95394af2c7988	1.5829054682468229
27	0xbff912020c30abc2	-1.5668964840103716
28	0x3fe1765919ae9719	0.5456967832185199
29	0x3ff92746770e9d20	1.5720886850993523
30	0xbff957aac38defed	-1.5839030875058555
31	0xbfc17524fe1a9637	-0.13638746650137687
32	0x3ff9511e850b7b12	1.5823044964851687
33	0x3fc0175811e48a8c	0.12571240304631137
34	0x3f4ba11c4d0fe9db	0.0008431804836839767
35	0xbfc049cc252f2665	-0.1272521192134263
36	0x3fe00817a0321d30	0.50098782814249
37	0x3fe5457eddacb389	0.664733345945579
38	0xbfc44ff7694d86f2	-0.15869038240185024
39	0x3fda2ee06987d851	0.40911112123229026
40	0x3fb8d06f5fceda8a	0.09693046654761353
41	0xbfda9ea425f8a6e2	-0.4159326906979982
42	0x3fbaa9f75d513d52	0.1041559794259588
43	0x3f65bb69435ba0e0	0.00265284117891805
44	0xbfb8e3a98badc55c	-0.09722385082365775
45	0xbffcb1a0b5420522	-1.7933661537538872
46	0x3faa14157816197a	0.05093447771928346
47	0x3ff0f92d2bb4af7e	1.0608340937860414
48	0x3fceeae7aa025b23	0.24154372979384062
49	0x3ff908dcb03b092d	1.5646635898597865
50	0x3fee7cc8168d71e8	0.9527321281889813
51	0xbfca20c9155f0789	-0.20412553351894427
52	0x3f648869755220e8	0.0025064525348775686
53	0x3fb2df37d99b7298	0.07371853888202862
54	0x3ff08b52cfc9c050	1.0340145222399038
55	0x3ff8f8418bf0cba5	1.5606093851499534
56	0x3fd02453ac4dbaad	0.25221721483732545
57	0x3ff1759bb3f90130	1.0912129430945008
58	0xbf618e859d8e08a6	-0.00214315506713188
59	0x3fd2bf908e19863c	0.2929421794598033
60	0x3fb7a6a54ee13048	0.09238656211636098
61	0xbff93ea99c414266	-1.577798471804408
62	0x3fc88f7049c7996b	0.19187739946864765
63	0x3ff6fb2a2147ff1e	1.4363194751785566
64	0xbfe85647e30a433b	-0.7605323252083517
65	0x3fb186d5159d60ff	0.06846362855629094
66	0x3fb0d0d34a5ae604	0.06568642201718694
67	0xbfddac98d0a5c126	-0.46365948081713027
68	0x3fbdb2d6f9f2e935	0.11601012804286344
69	0xbfa3f6da47d55318	-0.03899271132346466
70	0x3ff9668bda0b176b	1.5875357167546678
71	0x3fcf47fe701430f5	0.24438457939721273
