jacobs_examples/qae_runs/mackey_glass_tau17_n200/6q_2l_4t/L3/weights_inst04_L3.npy (npy, 992 bytes, 1 tensors)

array f8 [6, 6, 3]
00000000: ecb9 cfb7 25b3 91bf c611 5b58 cd05 eabf
00000010: e300 fccf 14e5 f13f d0be 52fb 7830 9c3f
00000020: e524 4b27 9979 e8bf 0e58 86bc 4af4 f33f
00000030: a0bd 5b94 2762 e53f d5e7 786e 8515 f1bf
00000040: c54f 1c05 94c4 a0bf 6551 0c34 f298 e4bf
00000050: e406 be62 6679 f2bf 876e c976 9bae c9bf
00000060: ad35 3741 e02a e43f 3d82 08e0 7a5a fb3f
00000070: 748c 0fd0 81be d33f d1d7 1cfd a501 e93f
00000080: d184 123d 3739 d9bf 528a f47d 95ee d9bf
00000090: b974 e384 aeda ec3f 21cf 081f 5585 9ebf
000000a0: 2a83 bb7d 898b c3bf 996d 0ed3 2c91 e5bf
000000b0: ddfa e2d9 299c d7bf e394 bd5e ba81 0140
000000c0: 2ff5 438b f849 dc3f 70b1 b4d0 dc4b ebbf
000000d0: 4e71 ee8e 2cdb e3bf 1701 a60d 163e fe3f
000000e0: c107 fa2c 5c0f edbf adca 79d8 8b27 b93f
000000f0: c3cc 6edc 3cc5 dc3f acf6 bda3 e4ea e03f
00000100: 43d4 4d1a 0283 f8bf d9f9 6468 6ec9 c4bf
00000110: e295 5ee5 23e4 f83f d562 e4be a039 b0bf
00000120: 6ed1 e5b8 4901 d5bf 72dc 7a48 b8d9 fabf
00000130: 40ca 7633 28db 9bbf eda9 2f56 68dc db3f
00000140: 0a0a c773 893b f6bf 1665 0890 7745 de3f
00000150: bde0 7e11 2102 b43f 3947 b8d9 b617 b73f
00000160: 3bef 3432 9251 d33f 2398 86a0 e84c ebbf
00000170: 639a 40f5 1fbb edbf 5dca ff25 2fb8 903f
00000180: dd37 c1e5 93e5 d6bf 6a75 6736 6b28 9cbf
00000190: ae56 07b8 fb36 e2bf 0b70 23ce e86a c23f
000001a0: 0416 e3b6 016d b83f 8f52 46a8 11e3 703f
000001b0: c54a 8f3a dcab d23f d149 9551 f461 b43f
000001c0: bf0c 9d66 c286 07c0 44fd cebd 56bb a03f
000001d0: f2b5 79ae af0a ec3f f6a3 1369 687a b7bf
000001e0: 6f79 4a98 5a45 a33f ae0f a673 7c57 27bf
000001f0: 3a92 38d1 e116 febf a096 4a9c 035a c43f
00000200: 3c34 1940 cf92 e93f fa4b e7ba 56d4 eabf
00000210: f490 afab 2219 d43f 0c9a f930 6ad0 07bf
00000220: 74fb e270 3b83 febf 800f f2d6 0d65 bb3f
00000230: d702 9f30 7c44 b23f 19b3 c519 a0a2 c7bf
00000240: ef3d 26be ecc9 d83f 6d6a f291 cadf d53f
00000250: 3e42 196f 3642 ea3f b448 e9f8 556f f63f
00000260: da80 e494 7b03 0b3f d0c9 1e08 2602 f43f
00000270: b96b 5b4e 4818 b6bf 58c7 e02f 3a7c f93e
00000280: 0dcd 835f 646a f83f 3206 cb2e a655 c8bf
00000290: 6004 d2f0 2c19 a93e 10b2 7334 0df1 e3bf
000002a0: 4bb5 d609 e754 ebbf 7983 04f2 700c 30bf
000002b0: 58ef 00b7 6e7a e6bf 78ad 617f b6f6 c23f
000002c0: b30b b78d 24cc d83f 66c8 4f1b 4c7c d23f
000002d0: fc4f b3ed fc90 b43f a967 b92d 45ab 05bf
000002e0: 2180 fb3f a84f d23f 8012 9cdd 1e1d cb3f
000002f0: e331 42b0 9686 df3f 00be 8cc1 5bf3 ef3f
00000300: 9e26 fbc2 a122 0440 2a33 1bc9 b22d d53f
00000310: 8283 0219 2d37 d33f b941 1f44 80c5 c8bf
00000320: 16f5 0543 16a6 f0be 248a f50c 5736 b43f
00000330: 70e6 74ae f6bb de3f 9443 5578 c5aa d63f
00000340: f290 aebe 6fef e93f 9141 f9fe 21d4 d43f
00000350: 2b4f ab80 a707 c03f df39 d8ed b7c7 a13f
-0.017284955352744477 -0.8132082677553221 1.118428051413553 0.027528658237030268 -0.7648435370876113 1.2471415867089521 0.6682317636131536 -1.0677542033504228
-0.03274977266678961 -0.6436701790394578 -1.1546386582489783 -0.2006410913480645 0.6302338861220754 1.709589839105447 0.30850262945586526 0.781451219902687
-0.3941171738061487 -0.40518700886074044 0.9016945453146469 -0.029805498141470047 -0.15269583358078737 -0.6739715692705658 -0.36890646245949005 2.1883437539678297
0.4420148239149339 -0.8530105663572112 -0.6205046455029704 1.8901577504294147 -0.908125007481651 0.09825967822124922 0.44953843619005 0.5286734769903965
-1.5319844272137437 -0.16239719483742368 1.5556982955689524 -0.06337933216526477 -0.32820361191195146 -1.6781542617079848 -0.027203205243220063 0.4353276101743678
-1.3895353815611338 0.4729899317331542 0.0781574886049183 0.09020560088563635 0.3018537035275021 -0.8531382689732293 -0.9290923872075151 0.016327606863294587
-0.3577623122881713 -0.027497935481610204 -0.5692118257818117 0.1438876158271117 0.09541331019416793 0.004122799848478422 0.2917395183441552 0.07961966506744679
-2.940800477664737 0.03267928187369276 0.8763044746135036 -0.09171154561376213 0.037638503160667074 -0.00017808336435731542 -1.880586449880083 0.15899701243795494
0.7991710903094211 -0.8384202623805088 0.3140341450328059 -4.542182989268972e-05 -1.9070391091952077 0.1070107126016051 0.07135749995269279 -0.18465043314372379
0.38732451028133047 0.3417841363204051 0.8205825967689362 1.4021815989586175 5.1524361526002294e-05 1.250524551124375 -0.08630802071586076 2.4304640639800354e-05
1.5259746295021757 -0.19011380467240852 7.47988879404423e-07 -0.6231752418949004 -0.8541140739595589 -0.00024488217788314715 -0.7024453710832672 0.14815407962610627
0.38745988692624705 0.2888365046229694 0.08033734133942966 -4.133038393368201e-05 0.28611189125331477 0.21182618923934982 0.4925896378779539 0.9984568386334445
2.5169100983519703 0.3309142078331201 0.30024268572201873 -0.1935272534015107 -1.5877511204011567e-05 0.07895416323075516 0.4802223876646172 0.3541730570914805
0.8104780887847751 0.3254475584008328 0.12523359091448447 0.0347268560254752
